{"format": "graph-model", "generatedBy": "1.15.0", "convertedBy": "TensorFlow.js Converter v4.22.0", "signature": {"inputs": {"images": {"name": "hub_input/images:0", "dtype": "DT_FLOAT", "tensorShape": {"dim": [{"size": "-1"}, {"size": "224"}, {"size": "224"}, {"size": "3"}]}}}, "outputs": {"logits": {"name": "prediction:0", "dtype": "DT_FLOAT", "tensorShape": {"dim": [{"size": "-1"}, {"size": "965"}]}}}}, "modelTopology": {"node": [{"name": "MobilenetV2/expanded_conv_15/expand/weights_quant/FakeQuantWithMinMaxVars", "op": "Const", "attr": {"value": {"tensor": {"dtype": "DT_FLOAT", "tensorShape": {"dim": [{"size": "1"}, {"size": "1"}, {"size": "160"}, {"size": "960"}]}}}, "dtype": {"type": "DT_FLOAT"}}}, {"name": "MobilenetV2/expanded_conv_15/expand/BatchNorm_Fold/bias", "op": "Const", "attr": {"value": {"tensor": {"dtype": "DT_FLOAT", "tensorShape": {"dim": [{"size": "960"}]}}}, "dtype": {"type": "DT_FLOAT"}}}, {"name": "MobilenetV2/expanded_conv_15/expand/act_quant/min", "op": "Const", "attr": {"value": {"tensor": {"dtype": "DT_FLOAT", "tensorShape": {}}}, "dtype": {"type": "DT_FLOAT"}}}, {"name": "MobilenetV2/expanded_conv_15/expand/act_quant/max", "op": "Const", "attr": {"value": {"tensor": {"dtype": "DT_FLOAT", "tensorShape": {}}}, "dtype": {"type": "DT_FLOAT"}}}, {"name": "MobilenetV2/expanded_conv_15/depthwise/weights_quant/FakeQuantWithMinMaxVars", "op": "Const", "attr": {"value": {"tensor": {"dtype": "DT_FLOAT", "tensorShape": {"dim": [{"size": "3"}, {"size": "3"}, {"size": "960"}, {"size": "1"}]}}}, "dtype": {"type": "DT_FLOAT"}}}, {"name": "MobilenetV2/expanded_conv_15/depthwise/BatchNorm_Fold/bias", "op": "Const", "attr": {"value": {"tensor": {"dtype": "DT_FLOAT", "tensorShape": {"dim": [{"size": "960"}]}}}, "dtype": {"type": "DT_FLOAT"}}}, {"name": "MobilenetV2/expanded_conv_15/depthwise/act_quant/min", "op": "Const", "attr": {"value": {"tensor": {"dtype": "DT_FLOAT", "tensorShape": {}}}, "dtype": {"type": "DT_FLOAT"}}}, {"name": "MobilenetV2/expanded_conv_15/depthwise/act_quant/max", "op": "Const", "attr": {"value": {"tensor": {"dtype": "DT_FLOAT", "tensorShape": {}}}, "dtype": {"type": "DT_FLOAT"}}}, {"name": "MobilenetV2/expanded_conv_15/project/weights_quant/FakeQuantWithMinMaxVars", "op": "Const", "attr": {"value": {"tensor": {"dtype": "DT_FLOAT", "tensorShape": {"dim": [{"size": "1"}, {"size": "1"}, {"size": "960"}, {"size": "160"}]}}}, "dtype": {"type": "DT_FLOAT"}}}, {"name": "MobilenetV2/expanded_conv_15/project/BatchNorm_Fold/bias", "op": "Const", "attr": {"value": {"tensor": {"dtype": "DT_FLOAT", "tensorShape": {"dim": [{"size": "160"}]}}}, "dtype": {"type": "DT_FLOAT"}}}, {"name": "MobilenetV2/expanded_conv_15/project/act_quant/min", "op": "Const", "attr": {"value": {"tensor": {"dtype": "DT_FLOAT", "tensorShape": {}}}, "dtype": {"type": "DT_FLOAT"}}}, {"name": "MobilenetV2/expanded_conv_15/project/act_quant/max", "op": "Const", "attr": {"value": {"tensor": {"dtype": "DT_FLOAT", "tensorShape": {}}}, "dtype": {"type": "DT_FLOAT"}}}, {"name": "MobilenetV2/expanded_conv_14/expand/weights_quant/FakeQuantWithMinMaxVars", "op": "Const", "attr": {"value": {"tensor": {"dtype": "DT_FLOAT", "tensorShape": {"dim": [{"size": "1"}, {"size": "1"}, {"size": "160"}, {"size": "960"}]}}}, "dtype": {"type": "DT_FLOAT"}}}, {"name": "MobilenetV2/expanded_conv_14/expand/BatchNorm_Fold/bias", "op": "Const", "attr": {"value": {"tensor": {"dtype": "DT_FLOAT", "tensorShape": {"dim": [{"size": "960"}]}}}, "dtype": {"type": "DT_FLOAT"}}}, {"name": "MobilenetV2/expanded_conv_14/expand/act_quant/min", "op": "Const", "attr": {"value": {"tensor": {"dtype": "DT_FLOAT", "tensorShape": {}}}, "dtype": {"type": "DT_FLOAT"}}}, {"name": "MobilenetV2/expanded_conv_14/expand/act_quant/max", "op": "Const", "attr": {"value": {"tensor": {"dtype": "DT_FLOAT", "tensorShape": {}}}, "dtype": {"type": "DT_FLOAT"}}}, {"name": "MobilenetV2/expanded_conv_14/depthwise/weights_quant/FakeQuantWithMinMaxVars", "op": "Const", "attr": {"value": {"tensor": {"dtype": "DT_FLOAT", "tensorShape": {"dim": [{"size": "3"}, {"size": "3"}, {"size": "960"}, {"size": "1"}]}}}, "dtype": {"type": "DT_FLOAT"}}}, {"name": "MobilenetV2/expanded_conv_14/depthwise/BatchNorm_Fold/bias", "op": "Const", "attr": {"value": {"tensor": {"dtype": "DT_FLOAT", "tensorShape": {"dim": [{"size": "960"}]}}}, "dtype": {"type": "DT_FLOAT"}}}, {"name": "MobilenetV2/expanded_conv_14/depthwise/act_quant/min", "op": "Const", "attr": {"value": {"tensor": {"dtype": "DT_FLOAT", "tensorShape": {}}}, "dtype": {"type": "DT_FLOAT"}}}, {"name": "MobilenetV2/expanded_conv_14/depthwise/act_quant/max", "op": "Const", "attr": {"value": {"tensor": {"dtype": "DT_FLOAT", "tensorShape": {}}}, "dtype": {"type": "DT_FLOAT"}}}, {"name": "MobilenetV2/expanded_conv_14/project/weights_quant/FakeQuantWithMinMaxVars", "op": "Const", "attr": {"value": {"tensor": {"dtype": "DT_FLOAT", "tensorShape": {"dim": [{"size": "1"}, {"size": "1"}, {"size": "960"}, {"size": "160"}]}}}, "dtype": {"type": "DT_FLOAT"}}}, {"name": "MobilenetV2/expanded_conv_14/project/BatchNorm_Fold/bias", "op": "Const", "attr": {"value": {"tensor": {"dtype": "DT_FLOAT", "tensorShape": {"dim": [{"size": "160"}]}}}, "dtype": {"type": "DT_FLOAT"}}}, {"name": "MobilenetV2/expanded_conv_14/project/act_quant/min", "op": "Const", "attr": {"value": {"tensor": {"dtype": "DT_FLOAT", "tensorShape": {}}}, "dtype": {"type": "DT_FLOAT"}}}, {"name": "MobilenetV2/expanded_conv_14/project/act_quant/max", "op": "Const", "attr": {"value": {"tensor": {"dtype": "DT_FLOAT", "tensorShape": {}}}, "dtype": {"type": "DT_FLOAT"}}}, {"name": "MobilenetV2/expanded_conv_12/expand/weights_quant/FakeQuantWithMinMaxVars", "op": "Const", "attr": {"value": {"tensor": {"dtype": "DT_FLOAT", "tensorShape": {"dim": [{"size": "1"}, {"size": "1"}, {"size": "96"}, {"size": "576"}]}}}, "dtype": {"type": "DT_FLOAT"}}}, {"name": "MobilenetV2/expanded_conv_12/expand/BatchNorm_Fold/bias", "op": "Const", "attr": {"value": {"tensor": {"dtype": "DT_FLOAT", "tensorShape": {"dim": [{"size": "576"}]}}}, "dtype": {"type": "DT_FLOAT"}}}, {"name": "MobilenetV2/expanded_conv_12/expand/act_quant/min", "op": "Const", "attr": {"value": {"tensor": {"dtype": "DT_FLOAT", "tensorShape": {}}}, "dtype": {"type": "DT_FLOAT"}}}, {"name": "MobilenetV2/expanded_conv_12/expand/act_quant/max", "op": "Const", "attr": {"value": {"tensor": {"dtype": "DT_FLOAT", "tensorShape": {}}}, "dtype": {"type": "DT_FLOAT"}}}, {"name": "MobilenetV2/expanded_conv_12/depthwise/weights_quant/FakeQuantWithMinMaxVars", "op": "Const", "attr": {"value": {"tensor": {"dtype": "DT_FLOAT", "tensorShape": {"dim": [{"size": "3"}, {"size": "3"}, {"size": "576"}, {"size": "1"}]}}}, "dtype": {"type": "DT_FLOAT"}}}, {"name": "MobilenetV2/expanded_conv_12/depthwise/BatchNorm_Fold/bias", "op": "Const", "attr": {"value": {"tensor": {"dtype": "DT_FLOAT", "tensorShape": {"dim": [{"size": "576"}]}}}, "dtype": {"type": "DT_FLOAT"}}}, {"name": "MobilenetV2/expanded_conv_12/depthwise/act_quant/min", "op": "Const", "attr": {"value": {"tensor": {"dtype": "DT_FLOAT", "tensorShape": {}}}, "dtype": {"type": "DT_FLOAT"}}}, {"name": "MobilenetV2/expanded_conv_12/depthwise/act_quant/max", "op": "Const", "attr": {"value": {"tensor": {"dtype": "DT_FLOAT", "tensorShape": {}}}, "dtype": {"type": "DT_FLOAT"}}}, {"name": "MobilenetV2/expanded_conv_12/project/weights_quant/FakeQuantWithMinMaxVars", "op": "Const", "attr": {"value": {"tensor": {"dtype": "DT_FLOAT", "tensorShape": {"dim": [{"size": "1"}, {"size": "1"}, {"size": "576"}, {"size": "96"}]}}}, "dtype": {"type": "DT_FLOAT"}}}, {"name": "MobilenetV2/expanded_conv_12/project/BatchNorm_Fold/bias", "op": "Const", "attr": {"value": {"tensor": {"dtype": "DT_FLOAT", "tensorShape": {"dim": [{"size": "96"}]}}}, "dtype": {"type": "DT_FLOAT"}}}, {"name": "MobilenetV2/expanded_conv_12/project/act_quant/min", "op": "Const", "attr": {"value": {"tensor": {"dtype": "DT_FLOAT", "tensorShape": {}}}, "dtype": {"type": "DT_FLOAT"}}}, {"name": "MobilenetV2/expanded_conv_12/project/act_quant/max", "op": "Const", "attr": {"value": {"tensor": {"dtype": "DT_FLOAT", "tensorShape": {}}}, "dtype": {"type": "DT_FLOAT"}}}, {"name": "MobilenetV2/expanded_conv_11/expand/weights_quant/FakeQuantWithMinMaxVars", "op": "Const", "attr": {"value": {"tensor": {"dtype": "DT_FLOAT", "tensorShape": {"dim": [{"size": "1"}, {"size": "1"}, {"size": "96"}, {"size": "576"}]}}}, "dtype": {"type": "DT_FLOAT"}}}, {"name": "MobilenetV2/expanded_conv_11/expand/BatchNorm_Fold/bias", "op": "Const", "attr": {"value": {"tensor": {"dtype": "DT_FLOAT", "tensorShape": {"dim": [{"size": "576"}]}}}, "dtype": {"type": "DT_FLOAT"}}}, {"name": "MobilenetV2/expanded_conv_11/expand/act_quant/min", "op": "Const", "attr": {"value": {"tensor": {"dtype": "DT_FLOAT", "tensorShape": {}}}, "dtype": {"type": "DT_FLOAT"}}}, {"name": "MobilenetV2/expanded_conv_11/expand/act_quant/max", "op": "Const", "attr": {"value": {"tensor": {"dtype": "DT_FLOAT", "tensorShape": {}}}, "dtype": {"type": "DT_FLOAT"}}}, {"name": "MobilenetV2/expanded_conv_11/depthwise/weights_quant/FakeQuantWithMinMaxVars", "op": "Const", "attr": {"value": {"tensor": {"dtype": "DT_FLOAT", "tensorShape": {"dim": [{"size": "3"}, {"size": "3"}, {"size": "576"}, {"size": "1"}]}}}, "dtype": {"type": "DT_FLOAT"}}}, {"name": "MobilenetV2/expanded_conv_11/depthwise/BatchNorm_Fold/bias", "op": "Const", "attr": {"value": {"tensor": {"dtype": "DT_FLOAT", "tensorShape": {"dim": [{"size": "576"}]}}}, "dtype": {"type": "DT_FLOAT"}}}, {"name": "MobilenetV2/expanded_conv_11/depthwise/act_quant/min", "op": "Const", "attr": {"value": {"tensor": {"dtype": "DT_FLOAT", "tensorShape": {}}}, "dtype": {"type": "DT_FLOAT"}}}, {"name": "MobilenetV2/expanded_conv_11/depthwise/act_quant/max", "op": "Const", "attr": {"value": {"tensor": {"dtype": "DT_FLOAT", "tensorShape": {}}}, "dtype": {"type": "DT_FLOAT"}}}, {"name": "MobilenetV2/expanded_conv_11/project/weights_quant/FakeQuantWithMinMaxVars", "op": "Const", "attr": {"value": {"tensor": {"dtype": "DT_FLOAT", "tensorShape": {"dim": [{"size": "1"}, {"size": "1"}, {"size": "576"}, {"size": "96"}]}}}, "dtype": {"type": "DT_FLOAT"}}}, {"name": "MobilenetV2/expanded_conv_11/project/BatchNorm_Fold/bias", "op": "Const", "attr": {"value": {"tensor": {"dtype": "DT_FLOAT", "tensorShape": {"dim": [{"size": "96"}]}}}, "dtype": {"type": "DT_FLOAT"}}}, {"name": "MobilenetV2/expanded_conv_11/project/act_quant/min", "op": "Const", "attr": {"value": {"tensor": {"dtype": "DT_FLOAT", "tensorShape": {}}}, "dtype": {"type": "DT_FLOAT"}}}, {"name": "MobilenetV2/expanded_conv_11/project/act_quant/max", "op": "Const", "attr": {"value": {"tensor": {"dtype": "DT_FLOAT", "tensorShape": {}}}, "dtype": {"type": "DT_FLOAT"}}}, {"name": "MobilenetV2/expanded_conv_9/expand/weights_quant/FakeQuantWithMinMaxVars", "op": "Const", "attr": {"value": {"tensor": {"dtype": "DT_FLOAT", "tensorShape": {"dim": [{"size": "1"}, {"size": "1"}, {"size": "64"}, {"size": "384"}]}}}, "dtype": {"type": "DT_FLOAT"}}}, {"name": "MobilenetV2/expanded_conv_9/expand/BatchNorm_Fold/bias", "op": "Const", "attr": {"value": {"tensor": {"dtype": "DT_FLOAT", "tensorShape": {"dim": [{"size": "384"}]}}}, "dtype": {"type": "DT_FLOAT"}}}, {"name": "MobilenetV2/expanded_conv_9/expand/act_quant/min", "op": "Const", "attr": {"value": {"tensor": {"dtype": "DT_FLOAT", "tensorShape": {}}}, "dtype": {"type": "DT_FLOAT"}}}, {"name": "MobilenetV2/expanded_conv_9/expand/act_quant/max", "op": "Const", "attr": {"value": {"tensor": {"dtype": "DT_FLOAT", "tensorShape": {}}}, "dtype": {"type": "DT_FLOAT"}}}, {"name": "MobilenetV2/expanded_conv_9/depthwise/weights_quant/FakeQuantWithMinMaxVars", "op": "Const", "attr": {"value": {"tensor": {"dtype": "DT_FLOAT", "tensorShape": {"dim": [{"size": "3"}, {"size": "3"}, {"size": "384"}, {"size": "1"}]}}}, "dtype": {"type": "DT_FLOAT"}}}, {"name": "MobilenetV2/expanded_conv_9/depthwise/BatchNorm_Fold/bias", "op": "Const", "attr": {"value": {"tensor": {"dtype": "DT_FLOAT", "tensorShape": {"dim": [{"size": "384"}]}}}, "dtype": {"type": "DT_FLOAT"}}}, {"name": "MobilenetV2/expanded_conv_9/depthwise/act_quant/min", "op": "Const", "attr": {"value": {"tensor": {"dtype": "DT_FLOAT", "tensorShape": {}}}, "dtype": {"type": "DT_FLOAT"}}}, {"name": "MobilenetV2/expanded_conv_9/depthwise/act_quant/max", "op": "Const", "attr": {"value": {"tensor": {"dtype": "DT_FLOAT", "tensorShape": {}}}, "dtype": {"type": "DT_FLOAT"}}}, {"name": "MobilenetV2/expanded_conv_9/project/weights_quant/FakeQuantWithMinMaxVars", "op": "Const", "attr": {"value": {"tensor": {"dtype": "DT_FLOAT", "tensorShape": {"dim": [{"size": "1"}, {"size": "1"}, {"size": "384"}, {"size": "64"}]}}}, "dtype": {"type": "DT_FLOAT"}}}, {"name": "MobilenetV2/expanded_conv_9/project/BatchNorm_Fold/bias", "op": "Const", "attr": {"value": {"tensor": {"dtype": "DT_FLOAT", "tensorShape": {"dim": [{"size": "64"}]}}}, "dtype": {"type": "DT_FLOAT"}}}, {"name": "MobilenetV2/expanded_conv_9/project/act_quant/min", "op": "Const", "attr": {"value": {"tensor": {"dtype": "DT_FLOAT", "tensorShape": {}}}, "dtype": {"type": "DT_FLOAT"}}}, {"name": "MobilenetV2/expanded_conv_9/project/act_quant/max", "op": "Const", "attr": {"value": {"tensor": {"dtype": "DT_FLOAT", "tensorShape": {}}}, "dtype": {"type": "DT_FLOAT"}}}, {"name": "MobilenetV2/expanded_conv_8/expand/weights_quant/FakeQuantWithMinMaxVars", "op": "Const", "attr": {"value": {"tensor": {"dtype": "DT_FLOAT", "tensorShape": {"dim": [{"size": "1"}, {"size": "1"}, {"size": "64"}, {"size": "384"}]}}}, "dtype": {"type": "DT_FLOAT"}}}, {"name": "MobilenetV2/expanded_conv_8/expand/BatchNorm_Fold/bias", "op": "Const", "attr": {"value": {"tensor": {"dtype": "DT_FLOAT", "tensorShape": {"dim": [{"size": "384"}]}}}, "dtype": {"type": "DT_FLOAT"}}}, {"name": "MobilenetV2/expanded_conv_8/expand/act_quant/min", "op": "Const", "attr": {"value": {"tensor": {"dtype": "DT_FLOAT", "tensorShape": {}}}, "dtype": {"type": "DT_FLOAT"}}}, {"name": "MobilenetV2/expanded_conv_8/expand/act_quant/max", "op": "Const", "attr": {"value": {"tensor": {"dtype": "DT_FLOAT", "tensorShape": {}}}, "dtype": {"type": "DT_FLOAT"}}}, {"name": "MobilenetV2/expanded_conv_8/depthwise/weights_quant/FakeQuantWithMinMaxVars", "op": "Const", "attr": {"value": {"tensor": {"dtype": "DT_FLOAT", "tensorShape": {"dim": [{"size": "3"}, {"size": "3"}, {"size": "384"}, {"size": "1"}]}}}, "dtype": {"type": "DT_FLOAT"}}}, {"name": "MobilenetV2/expanded_conv_8/depthwise/BatchNorm_Fold/bias", "op": "Const", "attr": {"value": {"tensor": {"dtype": "DT_FLOAT", "tensorShape": {"dim": [{"size": "384"}]}}}, "dtype": {"type": "DT_FLOAT"}}}, {"name": "MobilenetV2/expanded_conv_8/depthwise/act_quant/min", "op": "Const", "attr": {"value": {"tensor": {"dtype": "DT_FLOAT", "tensorShape": {}}}, "dtype": {"type": "DT_FLOAT"}}}, {"name": "MobilenetV2/expanded_conv_8/depthwise/act_quant/max", "op": "Const", "attr": {"value": {"tensor": {"dtype": "DT_FLOAT", "tensorShape": {}}}, "dtype": {"type": "DT_FLOAT"}}}, {"name": "MobilenetV2/expanded_conv_8/project/weights_quant/FakeQuantWithMinMaxVars", "op": "Const", "attr": {"value": {"tensor": {"dtype": "DT_FLOAT", "tensorShape": {"dim": [{"size": "1"}, {"size": "1"}, {"size": "384"}, {"size": "64"}]}}}, "dtype": {"type": "DT_FLOAT"}}}, {"name": "MobilenetV2/expanded_conv_8/project/BatchNorm_Fold/bias", "op": "Const", "attr": {"value": {"tensor": {"dtype": "DT_FLOAT", "tensorShape": {"dim": [{"size": "64"}]}}}, "dtype": {"type": "DT_FLOAT"}}}, {"name": "MobilenetV2/expanded_conv_8/project/act_quant/min", "op": "Const", "attr": {"value": {"tensor": {"dtype": "DT_FLOAT", "tensorShape": {}}}, "dtype": {"type": "DT_FLOAT"}}}, {"name": "MobilenetV2/expanded_conv_8/project/act_quant/max", "op": "Const", "attr": {"value": {"tensor": {"dtype": "DT_FLOAT", "tensorShape": {}}}, "dtype": {"type": "DT_FLOAT"}}}, {"name": "MobilenetV2/expanded_conv_7/expand/weights_quant/FakeQuantWithMinMaxVars", "op": "Const", "attr": {"value": {"tensor": {"dtype": "DT_FLOAT", "tensorShape": {"dim": [{"size": "1"}, {"size": "1"}, {"size": "64"}, {"size": "384"}]}}}, "dtype": {"type": "DT_FLOAT"}}}, {"name": "MobilenetV2/expanded_conv_7/expand/BatchNorm_Fold/bias", "op": "Const", "attr": {"value": {"tensor": {"dtype": "DT_FLOAT", "tensorShape": {"dim": [{"size": "384"}]}}}, "dtype": {"type": "DT_FLOAT"}}}, {"name": "MobilenetV2/expanded_conv_7/expand/act_quant/min", "op": "Const", "attr": {"value": {"tensor": {"dtype": "DT_FLOAT", "tensorShape": {}}}, "dtype": {"type": "DT_FLOAT"}}}, {"name": "MobilenetV2/expanded_conv_7/expand/act_quant/max", "op": "Const", "attr": {"value": {"tensor": {"dtype": "DT_FLOAT", "tensorShape": {}}}, "dtype": {"type": "DT_FLOAT"}}}, {"name": "MobilenetV2/expanded_conv_7/depthwise/weights_quant/FakeQuantWithMinMaxVars", "op": "Const", "attr": {"value": {"tensor": {"dtype": "DT_FLOAT", "tensorShape": {"dim": [{"size": "3"}, {"size": "3"}, {"size": "384"}, {"size": "1"}]}}}, "dtype": {"type": "DT_FLOAT"}}}, {"name": "MobilenetV2/expanded_conv_7/depthwise/BatchNorm_Fold/bias", "op": "Const", "attr": {"value": {"tensor": {"dtype": "DT_FLOAT", "tensorShape": {"dim": [{"size": "384"}]}}}, "dtype": {"type": "DT_FLOAT"}}}, {"name": "MobilenetV2/expanded_conv_7/depthwise/act_quant/min", "op": "Const", "attr": {"value": {"tensor": {"dtype": "DT_FLOAT", "tensorShape": {}}}, "dtype": {"type": "DT_FLOAT"}}}, {"name": "MobilenetV2/expanded_conv_7/depthwise/act_quant/max", "op": "Const", "attr": {"value": {"tensor": {"dtype": "DT_FLOAT", "tensorShape": {}}}, "dtype": {"type": "DT_FLOAT"}}}, {"name": "MobilenetV2/expanded_conv_7/project/weights_quant/FakeQuantWithMinMaxVars", "op": "Const", "attr": {"value": {"tensor": {"dtype": "DT_FLOAT", "tensorShape": {"dim": [{"size": "1"}, {"size": "1"}, {"size": "384"}, {"size": "64"}]}}}, "dtype": {"type": "DT_FLOAT"}}}, {"name": "MobilenetV2/expanded_conv_7/project/BatchNorm_Fold/bias", "op": "Const", "attr": {"value": {"tensor": {"dtype": "DT_FLOAT", "tensorShape": {"dim": [{"size": "64"}]}}}, "dtype": {"type": "DT_FLOAT"}}}, {"name": "MobilenetV2/expanded_conv_7/project/act_quant/min", "op": "Const", "attr": {"value": {"tensor": {"dtype": "DT_FLOAT", "tensorShape": {}}}, "dtype": {"type": "DT_FLOAT"}}}, {"name": "MobilenetV2/expanded_conv_7/project/act_quant/max", "op": "Const", "attr": {"value": {"tensor": {"dtype": "DT_FLOAT", "tensorShape": {}}}, "dtype": {"type": "DT_FLOAT"}}}, {"name": "MobilenetV2/expanded_conv_5/expand/weights_quant/FakeQuantWithMinMaxVars", "op": "Const", "attr": {"value": {"tensor": {"dtype": "DT_FLOAT", "tensorShape": {"dim": [{"size": "1"}, {"size": "1"}, {"size": "32"}, {"size": "192"}]}}}, "dtype": {"type": "DT_FLOAT"}}}, {"name": "MobilenetV2/expanded_conv_5/expand/BatchNorm_Fold/bias", "op": "Const", "attr": {"value": {"tensor": {"dtype": "DT_FLOAT", "tensorShape": {"dim": [{"size": "192"}]}}}, "dtype": {"type": "DT_FLOAT"}}}, {"name": "MobilenetV2/expanded_conv_5/expand/act_quant/min", "op": "Const", "attr": {"value": {"tensor": {"dtype": "DT_FLOAT", "tensorShape": {}}}, "dtype": {"type": "DT_FLOAT"}}}, {"name": "MobilenetV2/expanded_conv_5/expand/act_quant/max", "op": "Const", "attr": {"value": {"tensor": {"dtype": "DT_FLOAT", "tensorShape": {}}}, "dtype": {"type": "DT_FLOAT"}}}, {"name": "MobilenetV2/expanded_conv_5/depthwise/weights_quant/FakeQuantWithMinMaxVars", "op": "Const", "attr": {"value": {"tensor": {"dtype": "DT_FLOAT", "tensorShape": {"dim": [{"size": "3"}, {"size": "3"}, {"size": "192"}, {"size": "1"}]}}}, "dtype": {"type": "DT_FLOAT"}}}, {"name": "MobilenetV2/expanded_conv_5/depthwise/BatchNorm_Fold/bias", "op": "Const", "attr": {"value": {"tensor": {"dtype": "DT_FLOAT", "tensorShape": {"dim": [{"size": "192"}]}}}, "dtype": {"type": "DT_FLOAT"}}}, {"name": "MobilenetV2/expanded_conv_5/depthwise/act_quant/min", "op": "Const", "attr": {"value": {"tensor": {"dtype": "DT_FLOAT", "tensorShape": {}}}, "dtype": {"type": "DT_FLOAT"}}}, {"name": "MobilenetV2/expanded_conv_5/depthwise/act_quant/max", "op": "Const", "attr": {"value": {"tensor": {"dtype": "DT_FLOAT", "tensorShape": {}}}, "dtype": {"type": "DT_FLOAT"}}}, {"name": "MobilenetV2/expanded_conv_5/project/weights_quant/FakeQuantWithMinMaxVars", "op": "Const", "attr": {"value": {"tensor": {"dtype": "DT_FLOAT", "tensorShape": {"dim": [{"size": "1"}, {"size": "1"}, {"size": "192"}, {"size": "32"}]}}}, "dtype": {"type": "DT_FLOAT"}}}, {"name": "MobilenetV2/expanded_conv_5/project/BatchNorm_Fold/bias", "op": "Const", "attr": {"value": {"tensor": {"dtype": "DT_FLOAT", "tensorShape": {"dim": [{"size": "32"}]}}}, "dtype": {"type": "DT_FLOAT"}}}, {"name": "MobilenetV2/expanded_conv_5/project/act_quant/min", "op": "Const", "attr": {"value": {"tensor": {"dtype": "DT_FLOAT", "tensorShape": {}}}, "dtype": {"type": "DT_FLOAT"}}}, {"name": "MobilenetV2/expanded_conv_5/project/act_quant/max", "op": "Const", "attr": {"value": {"tensor": {"dtype": "DT_FLOAT", "tensorShape": {}}}, "dtype": {"type": "DT_FLOAT"}}}, {"name": "MobilenetV2/expanded_conv_4/expand/weights_quant/FakeQuantWithMinMaxVars", "op": "Const", "attr": {"value": {"tensor": {"dtype": "DT_FLOAT", "tensorShape": {"dim": [{"size": "1"}, {"size": "1"}, {"size": "32"}, {"size": "192"}]}}}, "dtype": {"type": "DT_FLOAT"}}}, {"name": "MobilenetV2/expanded_conv_4/expand/BatchNorm_Fold/bias", "op": "Const", "attr": {"value": {"tensor": {"dtype": "DT_FLOAT", "tensorShape": {"dim": [{"size": "192"}]}}}, "dtype": {"type": "DT_FLOAT"}}}, {"name": "MobilenetV2/expanded_conv_4/expand/act_quant/min", "op": "Const", "attr": {"value": {"tensor": {"dtype": "DT_FLOAT", "tensorShape": {}}}, "dtype": {"type": "DT_FLOAT"}}}, {"name": "MobilenetV2/expanded_conv_4/expand/act_quant/max", "op": "Const", "attr": {"value": {"tensor": {"dtype": "DT_FLOAT", "tensorShape": {}}}, "dtype": {"type": "DT_FLOAT"}}}, {"name": "MobilenetV2/expanded_conv_4/depthwise/weights_quant/FakeQuantWithMinMaxVars", "op": "Const", "attr": {"value": {"tensor": {"dtype": "DT_FLOAT", "tensorShape": {"dim": [{"size": "3"}, {"size": "3"}, {"size": "192"}, {"size": "1"}]}}}, "dtype": {"type": "DT_FLOAT"}}}, {"name": "MobilenetV2/expanded_conv_4/depthwise/BatchNorm_Fold/bias", "op": "Const", "attr": {"value": {"tensor": {"dtype": "DT_FLOAT", "tensorShape": {"dim": [{"size": "192"}]}}}, "dtype": {"type": "DT_FLOAT"}}}, {"name": "MobilenetV2/expanded_conv_4/depthwise/act_quant/min", "op": "Const", "attr": {"value": {"tensor": {"dtype": "DT_FLOAT", "tensorShape": {}}}, "dtype": {"type": "DT_FLOAT"}}}, {"name": "MobilenetV2/expanded_conv_4/depthwise/act_quant/max", "op": "Const", "attr": {"value": {"tensor": {"dtype": "DT_FLOAT", "tensorShape": {}}}, "dtype": {"type": "DT_FLOAT"}}}, {"name": "MobilenetV2/expanded_conv_4/project/weights_quant/FakeQuantWithMinMaxVars", "op": "Const", "attr": {"value": {"tensor": {"dtype": "DT_FLOAT", "tensorShape": {"dim": [{"size": "1"}, {"size": "1"}, {"size": "192"}, {"size": "32"}]}}}, "dtype": {"type": "DT_FLOAT"}}}, {"name": "MobilenetV2/expanded_conv_4/project/BatchNorm_Fold/bias", "op": "Const", "attr": {"value": {"tensor": {"dtype": "DT_FLOAT", "tensorShape": {"dim": [{"size": "32"}]}}}, "dtype": {"type": "DT_FLOAT"}}}, {"name": "MobilenetV2/expanded_conv_4/project/act_quant/min", "op": "Const", "attr": {"value": {"tensor": {"dtype": "DT_FLOAT", "tensorShape": {}}}, "dtype": {"type": "DT_FLOAT"}}}, {"name": "MobilenetV2/expanded_conv_4/project/act_quant/max", "op": "Const", "attr": {"value": {"tensor": {"dtype": "DT_FLOAT", "tensorShape": {}}}, "dtype": {"type": "DT_FLOAT"}}}, {"name": "MobilenetV2/expanded_conv_2/expand/weights_quant/FakeQuantWithMinMaxVars", "op": "Const", "attr": {"value": {"tensor": {"dtype": "DT_FLOAT", "tensorShape": {"dim": [{"size": "1"}, {"size": "1"}, {"size": "24"}, {"size": "144"}]}}}, "dtype": {"type": "DT_FLOAT"}}}, {"name": "MobilenetV2/expanded_conv_2/expand/BatchNorm_Fold/bias", "op": "Const", "attr": {"value": {"tensor": {"dtype": "DT_FLOAT", "tensorShape": {"dim": [{"size": "144"}]}}}, "dtype": {"type": "DT_FLOAT"}}}, {"name": "MobilenetV2/expanded_conv_2/expand/act_quant/min", "op": "Const", "attr": {"value": {"tensor": {"dtype": "DT_FLOAT", "tensorShape": {}}}, "dtype": {"type": "DT_FLOAT"}}}, {"name": "MobilenetV2/expanded_conv_2/expand/act_quant/max", "op": "Const", "attr": {"value": {"tensor": {"dtype": "DT_FLOAT", "tensorShape": {}}}, "dtype": {"type": "DT_FLOAT"}}}, {"name": "MobilenetV2/expanded_conv_2/depthwise/weights_quant/FakeQuantWithMinMaxVars", "op": "Const", "attr": {"value": {"tensor": {"dtype": "DT_FLOAT", "tensorShape": {"dim": [{"size": "3"}, {"size": "3"}, {"size": "144"}, {"size": "1"}]}}}, "dtype": {"type": "DT_FLOAT"}}}, {"name": "MobilenetV2/expanded_conv_2/depthwise/BatchNorm_Fold/bias", "op": "Const", "attr": {"value": {"tensor": {"dtype": "DT_FLOAT", "tensorShape": {"dim": [{"size": "144"}]}}}, "dtype": {"type": "DT_FLOAT"}}}, {"name": "MobilenetV2/expanded_conv_2/depthwise/act_quant/min", "op": "Const", "attr": {"value": {"tensor": {"dtype": "DT_FLOAT", "tensorShape": {}}}, "dtype": {"type": "DT_FLOAT"}}}, {"name": "MobilenetV2/expanded_conv_2/depthwise/act_quant/max", "op": "Const", "attr": {"value": {"tensor": {"dtype": "DT_FLOAT", "tensorShape": {}}}, "dtype": {"type": "DT_FLOAT"}}}, {"name": "MobilenetV2/expanded_conv_2/project/weights_quant/FakeQuantWithMinMaxVars", "op": "Const", "attr": {"value": {"tensor": {"dtype": "DT_FLOAT", "tensorShape": {"dim": [{"size": "1"}, {"size": "1"}, {"size": "144"}, {"size": "24"}]}}}, "dtype": {"type": "DT_FLOAT"}}}, {"name": "MobilenetV2/expanded_conv_2/project/BatchNorm_Fold/bias", "op": "Const", "attr": {"value": {"tensor": {"dtype": "DT_FLOAT", "tensorShape": {"dim": [{"size": "24"}]}}}, "dtype": {"type": "DT_FLOAT"}}}, {"name": "MobilenetV2/expanded_conv_2/project/act_quant/min", "op": "Const", "attr": {"value": {"tensor": {"dtype": "DT_FLOAT", "tensorShape": {}}}, "dtype": {"type": "DT_FLOAT"}}}, {"name": "MobilenetV2/expanded_conv_2/project/act_quant/max", "op": "Const", "attr": {"value": {"tensor": {"dtype": "DT_FLOAT", "tensorShape": {}}}, "dtype": {"type": "DT_FLOAT"}}}, {"name": "hub_input/images", "op": "Placeholder", "attr": {"shape": {"shape": {"dim": [{"size": "-1"}, {"size": "224"}, {"size": "224"}, {"size": "3"}]}}, "dtype": {"type": "DT_FLOAT"}}}, {"name": "hub_input/Mul/y", "op": "Const", "attr": {"value": {"tensor": {"dtype": "DT_FLOAT", "tensorShape": {}}}, "dtype": {"type": "DT_FLOAT"}}}, {"name": "hub_input/Sub/y", "op": "Const", "attr": {"value": {"tensor": {"dtype": "DT_FLOAT", "tensorShape": {}}}, "dtype": {"type": "DT_FLOAT"}}}, {"name": "MobilenetV2/Conv/weights_quant/FakeQuantWithMinMaxVars", "op": "Const", "attr": {"value": {"tensor": {"dtype": "DT_FLOAT", "tensorShape": {"dim": [{"size": "3"}, {"size": "3"}, {"size": "3"}, {"size": "32"}]}}}, "dtype": {"type": "DT_FLOAT"}}}, {"name": "MobilenetV2/Conv/BatchNorm_Fold/bias", "op": "Const", "attr": {"value": {"tensor": {"dtype": "DT_FLOAT", "tensorShape": {"dim": [{"size": "32"}]}}}, "dtype": {"type": "DT_FLOAT"}}}, {"name": "MobilenetV2/Conv/act_quant/min", "op": "Const", "attr": {"value": {"tensor": {"dtype": "DT_FLOAT", "tensorShape": {}}}, "dtype": {"type": "DT_FLOAT"}}}, {"name": "MobilenetV2/Conv/act_quant/max", "op": "Const", "attr": {"value": {"tensor": {"dtype": "DT_FLOAT", "tensorShape": {}}}, "dtype": {"type": "DT_FLOAT"}}}, {"name": "MobilenetV2/expanded_conv/depthwise/weights_quant/FakeQuantWithMinMaxVars", "op": "Const", "attr": {"value": {"tensor": {"dtype": "DT_FLOAT", "tensorShape": {"dim": [{"size": "3"}, {"size": "3"}, {"size": "32"}, {"size": "1"}]}}}, "dtype": {"type": "DT_FLOAT"}}}, {"name": "MobilenetV2/expanded_conv/depthwise/BatchNorm_Fold/bias", "op": "Const", "attr": {"value": {"tensor": {"dtype": "DT_FLOAT", "tensorShape": {"dim": [{"size": "32"}]}}}, "dtype": {"type": "DT_FLOAT"}}}, {"name": "MobilenetV2/expanded_conv/depthwise/act_quant/min", "op": "Const", "attr": {"value": {"tensor": {"dtype": "DT_FLOAT", "tensorShape": {}}}, "dtype": {"type": "DT_FLOAT"}}}, {"name": "MobilenetV2/expanded_conv/depthwise/act_quant/max", "op": "Const", "attr": {"value": {"tensor": {"dtype": "DT_FLOAT", "tensorShape": {}}}, "dtype": {"type": "DT_FLOAT"}}}, {"name": "MobilenetV2/expanded_conv/project/weights_quant/FakeQuantWithMinMaxVars", "op": "Const", "attr": {"value": {"tensor": {"dtype": "DT_FLOAT", "tensorShape": {"dim": [{"size": "1"}, {"size": "1"}, {"size": "32"}, {"size": "16"}]}}}, "dtype": {"type": "DT_FLOAT"}}}, {"name": "MobilenetV2/expanded_conv/project/BatchNorm_Fold/bias", "op": "Const", "attr": {"value": {"tensor": {"dtype": "DT_FLOAT", "tensorShape": {"dim": [{"size": "16"}]}}}, "dtype": {"type": "DT_FLOAT"}}}, {"name": "MobilenetV2/expanded_conv/project/act_quant/min", "op": "Const", "attr": {"value": {"tensor": {"dtype": "DT_FLOAT", "tensorShape": {}}}, "dtype": {"type": "DT_FLOAT"}}}, {"name": "MobilenetV2/expanded_conv/project/act_quant/max", "op": "Const", "attr": {"value": {"tensor": {"dtype": "DT_FLOAT", "tensorShape": {}}}, "dtype": {"type": "DT_FLOAT"}}}, {"name": "MobilenetV2/expanded_conv_1/expand/weights_quant/FakeQuantWithMinMaxVars", "op": "Const", "attr": {"value": {"tensor": {"dtype": "DT_FLOAT", "tensorShape": {"dim": [{"size": "1"}, {"size": "1"}, {"size": "16"}, {"size": "96"}]}}}, "dtype": {"type": "DT_FLOAT"}}}, {"name": "MobilenetV2/expanded_conv_15/post_activation_bypass_quant/min", "op": "Const", "attr": {"value": {"tensor": {"dtype": "DT_FLOAT", "tensorShape": {}}}, "dtype": {"type": "DT_FLOAT"}}}, {"name": "MobilenetV2/expanded_conv_1/expand/BatchNorm_Fold/bias", "op": "Const", "attr": {"value": {"tensor": {"dtype": "DT_FLOAT", "tensorShape": {"dim": [{"size": "96"}]}}}, "dtype": {"type": "DT_FLOAT"}}}, {"name": "MobilenetV2/expanded_conv_15/post_activation_bypass_quant/max", "op": "Const", "attr": {"value": {"tensor": {"dtype": "DT_FLOAT", "tensorShape": {}}}, "dtype": {"type": "DT_FLOAT"}}}, {"name": "MobilenetV2/expanded_conv_1/expand/act_quant/min", "op": "Const", "attr": {"value": {"tensor": {"dtype": "DT_FLOAT", "tensorShape": {}}}, "dtype": {"type": "DT_FLOAT"}}}, {"name": "MobilenetV2/expanded_conv_1/expand/act_quant/max", "op": "Const", "attr": {"value": {"tensor": {"dtype": "DT_FLOAT", "tensorShape": {}}}, "dtype": {"type": "DT_FLOAT"}}}, {"name": "MobilenetV2/expanded_conv_1/depthwise/weights_quant/FakeQuantWithMinMaxVars", "op": "Const", "attr": {"value": {"tensor": {"dtype": "DT_FLOAT", "tensorShape": {"dim": [{"size": "3"}, {"size": "3"}, {"size": "96"}, {"size": "1"}]}}}, "dtype": {"type": "DT_FLOAT"}}}, {"name": "MobilenetV2/expanded_conv_1/depthwise/BatchNorm_Fold/bias", "op": "Const", "attr": {"value": {"tensor": {"dtype": "DT_FLOAT", "tensorShape": {"dim": [{"size": "96"}]}}}, "dtype": {"type": "DT_FLOAT"}}}, {"name": "MobilenetV2/expanded_conv_1/depthwise/act_quant/min", "op": "Const", "attr": {"value": {"tensor": {"dtype": "DT_FLOAT", "tensorShape": {}}}, "dtype": {"type": "DT_FLOAT"}}}, {"name": "MobilenetV2/expanded_conv_1/depthwise/act_quant/max", "op": "Const", "attr": {"value": {"tensor": {"dtype": "DT_FLOAT", "tensorShape": {}}}, "dtype": {"type": "DT_FLOAT"}}}, {"name": "MobilenetV2/expanded_conv_1/project/weights_quant/FakeQuantWithMinMaxVars", "op": "Const", "attr": {"value": {"tensor": {"dtype": "DT_FLOAT", "tensorShape": {"dim": [{"size": "1"}, {"size": "1"}, {"size": "96"}, {"size": "24"}]}}}, "dtype": {"type": "DT_FLOAT"}}}, {"name": "MobilenetV2/expanded_conv_1/project/BatchNorm_Fold/bias", "op": "Const", "attr": {"value": {"tensor": {"dtype": "DT_FLOAT", "tensorShape": {"dim": [{"size": "24"}]}}}, "dtype": {"type": "DT_FLOAT"}}}, {"name": "MobilenetV2/expanded_conv_1/project/act_quant/min", "op": "Const", "attr": {"value": {"tensor": {"dtype": "DT_FLOAT", "tensorShape": {}}}, "dtype": {"type": "DT_FLOAT"}}}, {"name": "MobilenetV2/expanded_conv_1/project/act_quant/max", "op": "Const", "attr": {"value": {"tensor": {"dtype": "DT_FLOAT", "tensorShape": {}}}, "dtype": {"type": "DT_FLOAT"}}}, {"name": "MobilenetV2/expanded_conv_16/expand/weights_quant/FakeQuantWithMinMaxVars", "op": "Const", "attr": {"value": {"tensor": {"dtype": "DT_FLOAT", "tensorShape": {"dim": [{"size": "1"}, {"size": "1"}, {"size": "160"}, {"size": "960"}]}}}, "dtype": {"type": "DT_FLOAT"}}}, {"name": "Logits/biases", "op": "Const", "attr": {"value": {"tensor": {"dtype": "DT_FLOAT", "tensorShape": {"dim": [{"size": "965"}]}}}, "dtype": {"type": "DT_FLOAT"}}}, {"name": "MobilenetV2/expanded_conv_16/expand/BatchNorm_Fold/bias", "op": "Const", "attr": {"value": {"tensor": {"dtype": "DT_FLOAT", "tensorShape": {"dim": [{"size": "960"}]}}}, "dtype": {"type": "DT_FLOAT"}}}, {"name": "MobilenetV2/expanded_conv_2/post_activation_bypass_quant/min", "op": "Const", "attr": {"value": {"tensor": {"dtype": "DT_FLOAT", "tensorShape": {}}}, "dtype": {"type": "DT_FLOAT"}}}, {"name": "MobilenetV2/expanded_conv_2/post_activation_bypass_quant/max", "op": "Const", "attr": {"value": {"tensor": {"dtype": "DT_FLOAT", "tensorShape": {}}}, "dtype": {"type": "DT_FLOAT"}}}, {"name": "MobilenetV2/expanded_conv_3/expand/weights_quant/FakeQuantWithMinMaxVars", "op": "Const", "attr": {"value": {"tensor": {"dtype": "DT_FLOAT", "tensorShape": {"dim": [{"size": "1"}, {"size": "1"}, {"size": "24"}, {"size": "144"}]}}}, "dtype": {"type": "DT_FLOAT"}}}, {"name": "MobilenetV2/expanded_conv_3/expand/BatchNorm_Fold/bias", "op": "Const", "attr": {"value": {"tensor": {"dtype": "DT_FLOAT", "tensorShape": {"dim": [{"size": "144"}]}}}, "dtype": {"type": "DT_FLOAT"}}}, {"name": "MobilenetV2/expanded_conv_3/expand/act_quant/min", "op": "Const", "attr": {"value": {"tensor": {"dtype": "DT_FLOAT", "tensorShape": {}}}, "dtype": {"type": "DT_FLOAT"}}}, {"name": "MobilenetV2/expanded_conv_3/expand/act_quant/max", "op": "Const", "attr": {"value": {"tensor": {"dtype": "DT_FLOAT", "tensorShape": {}}}, "dtype": {"type": "DT_FLOAT"}}}, {"name": "MobilenetV2/expanded_conv_3/depthwise/weights_quant/FakeQuantWithMinMaxVars", "op": "Const", "attr": {"value": {"tensor": {"dtype": "DT_FLOAT", "tensorShape": {"dim": [{"size": "3"}, {"size": "3"}, {"size": "144"}, {"size": "1"}]}}}, "dtype": {"type": "DT_FLOAT"}}}, {"name": "MobilenetV2/expanded_conv_3/depthwise/BatchNorm_Fold/bias", "op": "Const", "attr": {"value": {"tensor": {"dtype": "DT_FLOAT", "tensorShape": {"dim": [{"size": "144"}]}}}, "dtype": {"type": "DT_FLOAT"}}}, {"name": "MobilenetV2/expanded_conv_3/depthwise/act_quant/min", "op": "Const", "attr": {"value": {"tensor": {"dtype": "DT_FLOAT", "tensorShape": {}}}, "dtype": {"type": "DT_FLOAT"}}}, {"name": "MobilenetV2/expanded_conv_3/depthwise/act_quant/max", "op": "Const", "attr": {"value": {"tensor": {"dtype": "DT_FLOAT", "tensorShape": {}}}, "dtype": {"type": "DT_FLOAT"}}}, {"name": "MobilenetV2/expanded_conv_3/project/weights_quant/FakeQuantWithMinMaxVars", "op": "Const", "attr": {"value": {"tensor": {"dtype": "DT_FLOAT", "tensorShape": {"dim": [{"size": "1"}, {"size": "1"}, {"size": "144"}, {"size": "32"}]}}}, "dtype": {"type": "DT_FLOAT"}}}, {"name": "MobilenetV2/expanded_conv_16/expand/act_quant/min", "op": "Const", "attr": {"value": {"tensor": {"dtype": "DT_FLOAT", "tensorShape": {}}}, "dtype": {"type": "DT_FLOAT"}}}, {"name": "MobilenetV2/expanded_conv_3/project/BatchNorm_Fold/bias", "op": "Const", "attr": {"value": {"tensor": {"dtype": "DT_FLOAT", "tensorShape": {"dim": [{"size": "32"}]}}}, "dtype": {"type": "DT_FLOAT"}}}, {"name": "MobilenetV2/expanded_conv_3/project/act_quant/min", "op": "Const", "attr": {"value": {"tensor": {"dtype": "DT_FLOAT", "tensorShape": {}}}, "dtype": {"type": "DT_FLOAT"}}}, {"name": "MobilenetV2/expanded_conv_3/project/act_quant/max", "op": "Const", "attr": {"value": {"tensor": {"dtype": "DT_FLOAT", "tensorShape": {}}}, "dtype": {"type": "DT_FLOAT"}}}, {"name": "MobilenetV2/expanded_conv_16/expand/act_quant/max", "op": "Const", "attr": {"value": {"tensor": {"dtype": "DT_FLOAT", "tensorShape": {}}}, "dtype": {"type": "DT_FLOAT"}}}, {"name": "MobilenetV2/expanded_conv_16/depthwise/weights_quant/FakeQuantWithMinMaxVars", "op": "Const", "attr": {"value": {"tensor": {"dtype": "DT_FLOAT", "tensorShape": {"dim": [{"size": "3"}, {"size": "3"}, {"size": "960"}, {"size": "1"}]}}}, "dtype": {"type": "DT_FLOAT"}}}, {"name": "MobilenetV2/expanded_conv_4/post_activation_bypass_quant/min", "op": "Const", "attr": {"value": {"tensor": {"dtype": "DT_FLOAT", "tensorShape": {}}}, "dtype": {"type": "DT_FLOAT"}}}, {"name": "MobilenetV2/expanded_conv_4/post_activation_bypass_quant/max", "op": "Const", "attr": {"value": {"tensor": {"dtype": "DT_FLOAT", "tensorShape": {}}}, "dtype": {"type": "DT_FLOAT"}}}, {"name": "MobilenetV2/expanded_conv_16/depthwise/BatchNorm_Fold/bias", "op": "Const", "attr": {"value": {"tensor": {"dtype": "DT_FLOAT", "tensorShape": {"dim": [{"size": "960"}]}}}, "dtype": {"type": "DT_FLOAT"}}}, {"name": "MobilenetV2/expanded_conv_5/post_activation_bypass_quant/min", "op": "Const", "attr": {"value": {"tensor": {"dtype": "DT_FLOAT", "tensorShape": {}}}, "dtype": {"type": "DT_FLOAT"}}}, {"name": "MobilenetV2/expanded_conv_5/post_activation_bypass_quant/max", "op": "Const", "attr": {"value": {"tensor": {"dtype": "DT_FLOAT", "tensorShape": {}}}, "dtype": {"type": "DT_FLOAT"}}}, {"name": "MobilenetV2/expanded_conv_6/expand/weights_quant/FakeQuantWithMinMaxVars", "op": "Const", "attr": {"value": {"tensor": {"dtype": "DT_FLOAT", "tensorShape": {"dim": [{"size": "1"}, {"size": "1"}, {"size": "32"}, {"size": "192"}]}}}, "dtype": {"type": "DT_FLOAT"}}}, {"name": "MobilenetV2/expanded_conv_6/expand/BatchNorm_Fold/bias", "op": "Const", "attr": {"value": {"tensor": {"dtype": "DT_FLOAT", "tensorShape": {"dim": [{"size": "192"}]}}}, "dtype": {"type": "DT_FLOAT"}}}, {"name": "MobilenetV2/expanded_conv_16/depthwise/act_quant/min", "op": "Const", "attr": {"value": {"tensor": {"dtype": "DT_FLOAT", "tensorShape": {}}}, "dtype": {"type": "DT_FLOAT"}}}, {"name": "MobilenetV2/expanded_conv_6/expand/act_quant/min", "op": "Const", "attr": {"value": {"tensor": {"dtype": "DT_FLOAT", "tensorShape": {}}}, "dtype": {"type": "DT_FLOAT"}}}, {"name": "MobilenetV2/expanded_conv_6/expand/act_quant/max", "op": "Const", "attr": {"value": {"tensor": {"dtype": "DT_FLOAT", "tensorShape": {}}}, "dtype": {"type": "DT_FLOAT"}}}, {"name": "MobilenetV2/expanded_conv_6/depthwise/weights_quant/FakeQuantWithMinMaxVars", "op": "Const", "attr": {"value": {"tensor": {"dtype": "DT_FLOAT", "tensorShape": {"dim": [{"size": "3"}, {"size": "3"}, {"size": "192"}, {"size": "1"}]}}}, "dtype": {"type": "DT_FLOAT"}}}, {"name": "MobilenetV2/expanded_conv_6/depthwise/BatchNorm_Fold/bias", "op": "Const", "attr": {"value": {"tensor": {"dtype": "DT_FLOAT", "tensorShape": {"dim": [{"size": "192"}]}}}, "dtype": {"type": "DT_FLOAT"}}}, {"name": "MobilenetV2/expanded_conv_6/depthwise/act_quant/min", "op": "Const", "attr": {"value": {"tensor": {"dtype": "DT_FLOAT", "tensorShape": {}}}, "dtype": {"type": "DT_FLOAT"}}}, {"name": "MobilenetV2/expanded_conv_6/depthwise/act_quant/max", "op": "Const", "attr": {"value": {"tensor": {"dtype": "DT_FLOAT", "tensorShape": {}}}, "dtype": {"type": "DT_FLOAT"}}}, {"name": "MobilenetV2/expanded_conv_6/project/weights_quant/FakeQuantWithMinMaxVars", "op": "Const", "attr": {"value": {"tensor": {"dtype": "DT_FLOAT", "tensorShape": {"dim": [{"size": "1"}, {"size": "1"}, {"size": "192"}, {"size": "64"}]}}}, "dtype": {"type": "DT_FLOAT"}}}, {"name": "MobilenetV2/expanded_conv_16/depthwise/act_quant/max", "op": "Const", "attr": {"value": {"tensor": {"dtype": "DT_FLOAT", "tensorShape": {}}}, "dtype": {"type": "DT_FLOAT"}}}, {"name": "MobilenetV2/expanded_conv_6/project/BatchNorm_Fold/bias", "op": "Const", "attr": {"value": {"tensor": {"dtype": "DT_FLOAT", "tensorShape": {"dim": [{"size": "64"}]}}}, "dtype": {"type": "DT_FLOAT"}}}, {"name": "MobilenetV2/expanded_conv_6/project/act_quant/min", "op": "Const", "attr": {"value": {"tensor": {"dtype": "DT_FLOAT", "tensorShape": {}}}, "dtype": {"type": "DT_FLOAT"}}}, {"name": "MobilenetV2/expanded_conv_6/project/act_quant/max", "op": "Const", "attr": {"value": {"tensor": {"dtype": "DT_FLOAT", "tensorShape": {}}}, "dtype": {"type": "DT_FLOAT"}}}, {"name": "MobilenetV2/expanded_conv_16/project/weights_quant/FakeQuantWithMinMaxVars", "op": "Const", "attr": {"value": {"tensor": {"dtype": "DT_FLOAT", "tensorShape": {"dim": [{"size": "1"}, {"size": "1"}, {"size": "960"}, {"size": "320"}]}}}, "dtype": {"type": "DT_FLOAT"}}}, {"name": "Logits/act_quant/min", "op": "Const", "attr": {"value": {"tensor": {"dtype": "DT_FLOAT", "tensorShape": {}}}, "dtype": {"type": "DT_FLOAT"}}}, {"name": "MobilenetV2/expanded_conv_7/post_activation_bypass_quant/min", "op": "Const", "attr": {"value": {"tensor": {"dtype": "DT_FLOAT", "tensorShape": {}}}, "dtype": {"type": "DT_FLOAT"}}}, {"name": "MobilenetV2/expanded_conv_7/post_activation_bypass_quant/max", "op": "Const", "attr": {"value": {"tensor": {"dtype": "DT_FLOAT", "tensorShape": {}}}, "dtype": {"type": "DT_FLOAT"}}}, {"name": "MobilenetV2/expanded_conv_16/project/BatchNorm_Fold/bias", "op": "Const", "attr": {"value": {"tensor": {"dtype": "DT_FLOAT", "tensorShape": {"dim": [{"size": "320"}]}}}, "dtype": {"type": "DT_FLOAT"}}}, {"name": "MobilenetV2/expanded_conv_16/project/act_quant/min", "op": "Const", "attr": {"value": {"tensor": {"dtype": "DT_FLOAT", "tensorShape": {}}}, "dtype": {"type": "DT_FLOAT"}}}, {"name": "MobilenetV2/expanded_conv_8/post_activation_bypass_quant/min", "op": "Const", "attr": {"value": {"tensor": {"dtype": "DT_FLOAT", "tensorShape": {}}}, "dtype": {"type": "DT_FLOAT"}}}, {"name": "MobilenetV2/expanded_conv_8/post_activation_bypass_quant/max", "op": "Const", "attr": {"value": {"tensor": {"dtype": "DT_FLOAT", "tensorShape": {}}}, "dtype": {"type": "DT_FLOAT"}}}, {"name": "MobilenetV2/expanded_conv_16/project/act_quant/max", "op": "Const", "attr": {"value": {"tensor": {"dtype": "DT_FLOAT", "tensorShape": {}}}, "dtype": {"type": "DT_FLOAT"}}}, {"name": "MobilenetV2/Conv_1/weights_quant/FakeQuantWithMinMaxVars", "op": "Const", "attr": {"value": {"tensor": {"dtype": "DT_FLOAT", "tensorShape": {"dim": [{"size": "1"}, {"size": "1"}, {"size": "320"}, {"size": "1280"}]}}}, "dtype": {"type": "DT_FLOAT"}}}, {"name": "MobilenetV2/expanded_conv_9/post_activation_bypass_quant/min", "op": "Const", "attr": {"value": {"tensor": {"dtype": "DT_FLOAT", "tensorShape": {}}}, "dtype": {"type": "DT_FLOAT"}}}, {"name": "MobilenetV2/expanded_conv_9/post_activation_bypass_quant/max", "op": "Const", "attr": {"value": {"tensor": {"dtype": "DT_FLOAT", "tensorShape": {}}}, "dtype": {"type": "DT_FLOAT"}}}, {"name": "MobilenetV2/expanded_conv_10/expand/weights_quant/FakeQuantWithMinMaxVars", "op": "Const", "attr": {"value": {"tensor": {"dtype": "DT_FLOAT", "tensorShape": {"dim": [{"size": "1"}, {"size": "1"}, {"size": "64"}, {"size": "384"}]}}}, "dtype": {"type": "DT_FLOAT"}}}, {"name": "Logits/act_quant/max", "op": "Const", "attr": {"value": {"tensor": {"dtype": "DT_FLOAT", "tensorShape": {}}}, "dtype": {"type": "DT_FLOAT"}}}, {"name": "MobilenetV2/expanded_conv_10/expand/BatchNorm_Fold/bias", "op": "Const", "attr": {"value": {"tensor": {"dtype": "DT_FLOAT", "tensorShape": {"dim": [{"size": "384"}]}}}, "dtype": {"type": "DT_FLOAT"}}}, {"name": "MobilenetV2/Conv_1/BatchNorm_Fold/bias", "op": "Const", "attr": {"value": {"tensor": {"dtype": "DT_FLOAT", "tensorShape": {"dim": [{"size": "1280"}]}}}, "dtype": {"type": "DT_FLOAT"}}}, {"name": "MobilenetV2/expanded_conv_10/expand/act_quant/min", "op": "Const", "attr": {"value": {"tensor": {"dtype": "DT_FLOAT", "tensorShape": {}}}, "dtype": {"type": "DT_FLOAT"}}}, {"name": "MobilenetV2/expanded_conv_10/expand/act_quant/max", "op": "Const", "attr": {"value": {"tensor": {"dtype": "DT_FLOAT", "tensorShape": {}}}, "dtype": {"type": "DT_FLOAT"}}}, {"name": "MobilenetV2/expanded_conv_10/depthwise/weights_quant/FakeQuantWithMinMaxVars", "op": "Const", "attr": {"value": {"tensor": {"dtype": "DT_FLOAT", "tensorShape": {"dim": [{"size": "3"}, {"size": "3"}, {"size": "384"}, {"size": "1"}]}}}, "dtype": {"type": "DT_FLOAT"}}}, {"name": "MobilenetV2/expanded_conv_10/depthwise/BatchNorm_Fold/bias", "op": "Const", "attr": {"value": {"tensor": {"dtype": "DT_FLOAT", "tensorShape": {"dim": [{"size": "384"}]}}}, "dtype": {"type": "DT_FLOAT"}}}, {"name": "MobilenetV2/expanded_conv_10/depthwise/act_quant/min", "op": "Const", "attr": {"value": {"tensor": {"dtype": "DT_FLOAT", "tensorShape": {}}}, "dtype": {"type": "DT_FLOAT"}}}, {"name": "MobilenetV2/expanded_conv_10/depthwise/act_quant/max", "op": "Const", "attr": {"value": {"tensor": {"dtype": "DT_FLOAT", "tensorShape": {}}}, "dtype": {"type": "DT_FLOAT"}}}, {"name": "MobilenetV2/expanded_conv_10/project/weights_quant/FakeQuantWithMinMaxVars", "op": "Const", "attr": {"value": {"tensor": {"dtype": "DT_FLOAT", "tensorShape": {"dim": [{"size": "1"}, {"size": "1"}, {"size": "384"}, {"size": "96"}]}}}, "dtype": {"type": "DT_FLOAT"}}}, {"name": "MobilenetV2/expanded_conv_10/project/BatchNorm_Fold/bias", "op": "Const", "attr": {"value": {"tensor": {"dtype": "DT_FLOAT", "tensorShape": {"dim": [{"size": "96"}]}}}, "dtype": {"type": "DT_FLOAT"}}}, {"name": "MobilenetV2/expanded_conv_10/project/act_quant/min", "op": "Const", "attr": {"value": {"tensor": {"dtype": "DT_FLOAT", "tensorShape": {}}}, "dtype": {"type": "DT_FLOAT"}}}, {"name": "MobilenetV2/expanded_conv_10/project/act_quant/max", "op": "Const", "attr": {"value": {"tensor": {"dtype": "DT_FLOAT", "tensorShape": {}}}, "dtype": {"type": "DT_FLOAT"}}}, {"name": "MobilenetV2/Conv_1/act_quant/min", "op": "Const", "attr": {"value": {"tensor": {"dtype": "DT_FLOAT", "tensorShape": {}}}, "dtype": {"type": "DT_FLOAT"}}}, {"name": "MobilenetV2/Conv_1/act_quant/max", "op": "Const", "attr": {"value": {"tensor": {"dtype": "DT_FLOAT", "tensorShape": {}}}, "dtype": {"type": "DT_FLOAT"}}}, {"name": "MobilenetV2/expanded_conv_11/post_activation_bypass_quant/min", "op": "Const", "attr": {"value": {"tensor": {"dtype": "DT_FLOAT", "tensorShape": {}}}, "dtype": {"type": "DT_FLOAT"}}}, {"name": "MobilenetV2/expanded_conv_11/post_activation_bypass_quant/max", "op": "Const", "attr": {"value": {"tensor": {"dtype": "DT_FLOAT", "tensorShape": {}}}, "dtype": {"type": "DT_FLOAT"}}}, {"name": "MobilenetV2/expanded_conv_12/post_activation_bypass_quant/min", "op": "Const", "attr": {"value": {"tensor": {"dtype": "DT_FLOAT", "tensorShape": {}}}, "dtype": {"type": "DT_FLOAT"}}}, {"name": "MobilenetV2/expanded_conv_12/post_activation_bypass_quant/max", "op": "Const", "attr": {"value": {"tensor": {"dtype": "DT_FLOAT", "tensorShape": {}}}, "dtype": {"type": "DT_FLOAT"}}}, {"name": "MobilenetV2/expanded_conv_13/expand/weights_quant/FakeQuantWithMinMaxVars", "op": "Const", "attr": {"value": {"tensor": {"dtype": "DT_FLOAT", "tensorShape": {"dim": [{"size": "1"}, {"size": "1"}, {"size": "96"}, {"size": "576"}]}}}, "dtype": {"type": "DT_FLOAT"}}}, {"name": "Flatten/flatten/strided_slice/stack", "op": "Const", "attr": {"value": {"tensor": {"dtype": "DT_INT32", "tensorShape": {"dim": [{"size": "1"}]}}}, "dtype": {"type": "DT_INT32"}}}, {"name": "MobilenetV2/expanded_conv_13/expand/BatchNorm_Fold/bias", "op": "Const", "attr": {"value": {"tensor": {"dtype": "DT_FLOAT", "tensorShape": {"dim": [{"size": "576"}]}}}, "dtype": {"type": "DT_FLOAT"}}}, {"name": "Flatten/flatten/strided_slice/stack_1", "op": "Const", "attr": {"value": {"tensor": {"dtype": "DT_INT32", "tensorShape": {"dim": [{"size": "1"}]}}}, "dtype": {"type": "DT_INT32"}}}, {"name": "MobilenetV2/expanded_conv_13/expand/act_quant/min", "op": "Const", "attr": {"value": {"tensor": {"dtype": "DT_FLOAT", "tensorShape": {}}}, "dtype": {"type": "DT_FLOAT"}}}, {"name": "MobilenetV2/expanded_conv_13/expand/act_quant/max", "op": "Const", "attr": {"value": {"tensor": {"dtype": "DT_FLOAT", "tensorShape": {}}}, "dtype": {"type": "DT_FLOAT"}}}, {"name": "MobilenetV2/expanded_conv_13/depthwise/weights_quant/FakeQuantWithMinMaxVars", "op": "Const", "attr": {"value": {"tensor": {"dtype": "DT_FLOAT", "tensorShape": {"dim": [{"size": "3"}, {"size": "3"}, {"size": "576"}, {"size": "1"}]}}}, "dtype": {"type": "DT_FLOAT"}}}, {"name": "MobilenetV2/expanded_conv_13/depthwise/BatchNorm_Fold/bias", "op": "Const", "attr": {"value": {"tensor": {"dtype": "DT_FLOAT", "tensorShape": {"dim": [{"size": "576"}]}}}, "dtype": {"type": "DT_FLOAT"}}}, {"name": "MobilenetV2/expanded_conv_13/depthwise/act_quant/min", "op": "Const", "attr": {"value": {"tensor": {"dtype": "DT_FLOAT", "tensorShape": {}}}, "dtype": {"type": "DT_FLOAT"}}}, {"name": "MobilenetV2/expanded_conv_13/depthwise/act_quant/max", "op": "Const", "attr": {"value": {"tensor": {"dtype": "DT_FLOAT", "tensorShape": {}}}, "dtype": {"type": "DT_FLOAT"}}}, {"name": "MobilenetV2/expanded_conv_13/project/weights_quant/FakeQuantWithMinMaxVars", "op": "Const", "attr": {"value": {"tensor": {"dtype": "DT_FLOAT", "tensorShape": {"dim": [{"size": "1"}, {"size": "1"}, {"size": "576"}, {"size": "160"}]}}}, "dtype": {"type": "DT_FLOAT"}}}, {"name": "Flatten/flatten/strided_slice/stack_2", "op": "Const", "attr": {"value": {"tensor": {"dtype": "DT_INT32", "tensorShape": {"dim": [{"size": "1"}]}}}, "dtype": {"type": "DT_INT32"}}}, {"name": "MobilenetV2/expanded_conv_13/project/BatchNorm_Fold/bias", "op": "Const", "attr": {"value": {"tensor": {"dtype": "DT_FLOAT", "tensorShape": {"dim": [{"size": "160"}]}}}, "dtype": {"type": "DT_FLOAT"}}}, {"name": "MobilenetV2/expanded_conv_13/project/act_quant/min", "op": "Const", "attr": {"value": {"tensor": {"dtype": "DT_FLOAT", "tensorShape": {}}}, "dtype": {"type": "DT_FLOAT"}}}, {"name": "MobilenetV2/expanded_conv_13/project/act_quant/max", "op": "Const", "attr": {"value": {"tensor": {"dtype": "DT_FLOAT", "tensorShape": {}}}, "dtype": {"type": "DT_FLOAT"}}}, {"name": "Flatten/flatten/Reshape/shape/1", "op": "Const", "attr": {"value": {"tensor": {"dtype": "DT_INT32", "tensorShape": {}}}, "dtype": {"type": "DT_INT32"}}}, {"name": "MobilenetV2/expanded_conv_14/post_activation_bypass_quant/min", "op": "Const", "attr": {"value": {"tensor": {"dtype": "DT_FLOAT", "tensorShape": {}}}, "dtype": {"type": "DT_FLOAT"}}}, {"name": "MobilenetV2/expanded_conv_14/post_activation_bypass_quant/max", "op": "Const", "attr": {"value": {"tensor": {"dtype": "DT_FLOAT", "tensorShape": {}}}, "dtype": {"type": "DT_FLOAT"}}}, {"name": "Logits/weights_quant/FakeQuantWithMinMaxVars", "op": "Const", "attr": {"value": {"tensor": {"dtype": "DT_FLOAT", "tensorShape": {"dim": [{"size": "1280"}, {"size": "965"}]}}}, "dtype": {"type": "DT_FLOAT"}}}, {"name": "hub_input/Mul", "op": "Mul", "input": ["hub_input/images", "hub_input/Mul/y"], "attr": {"T": {"type": "DT_FLOAT"}}}, {"name": "hub_input/Sub", "op": "Sub", "input": ["hub_input/Mul", "hub_input/Sub/y"], "attr": {"T": {"type": "DT_FLOAT"}}}, {"name": "MobilenetV2/Conv/Relu6", "op": "_FusedConv2D", "input": ["hub_input/Sub", "MobilenetV2/Conv/weights_quant/FakeQuantWithMinMaxVars", "MobilenetV2/Conv/BatchNorm_Fold/bias"], "device": "/device:CPU:0", "attr": {"num_host_args": {"i": "0"}, "data_format": {"s": "TkhXQw=="}, "filter_format": {"s": "SFdJTw=="}, "fused_ops": {"list": {"s": ["Qmlhc0FkZA==", "UmVsdTY="]}}, "num_args": {"i": "1"}, "strides": {"list": {"i": ["1", "2", "2", "1"]}}, "TArgs": {"list": {"type": ["DT_FLOAT"]}}, "padding": {"s": "U0FNRQ=="}, "use_cudnn_on_gpu": {"b": true}, "leakyrelu_alpha": {"f": 0.2}, "epsilon": {"f": 0.0}, "T": {"type": "DT_FLOAT"}, "explicit_paddings": {"list": {}}, "dilations": {"list": {"i": ["1", "1", "1", "1"]}}}}, {"name": "MobilenetV2/Conv/act_quant/FakeQuantWithMinMaxVars", "op": "FakeQuantWithMinMaxVars", "input": ["MobilenetV2/Conv/Relu6", "MobilenetV2/Conv/act_quant/min", "MobilenetV2/Conv/act_quant/max"], "attr": {"narrow_range": {"b": false}, "num_bits": {"i": "8"}}}, {"name": "MobilenetV2/expanded_conv/depthwise/depthwise_Fold", "op": "FusedDepthwiseConv2dNative", "input": ["MobilenetV2/Conv/act_quant/FakeQuantWithMinMaxVars", "MobilenetV2/expanded_conv/depthwise/weights_quant/FakeQuantWithMinMaxVars", "MobilenetV2/expanded_conv/depthwise/BatchNorm_Fold/bias"], "attr": {"padding": {"s": "U0FNRQ=="}, "data_format": {"s": "TkhXQw=="}, "strides": {"list": {"i": ["1", "1", "1", "1"]}}, "num_args": {"i": "1"}, "fused_ops": {"list": {"s": ["Qmlhc0FkZA==", "UmVsdTY="]}}, "T": {"type": "DT_FLOAT"}, "explicit_paddings": {"list": {}}, "dilations": {"list": {"i": ["1", "1", "1", "1"]}}}}, {"name": "MobilenetV2/expanded_conv/depthwise/act_quant/FakeQuantWithMinMaxVars", "op": "FakeQuantWithMinMaxVars", "input": ["MobilenetV2/expanded_conv/depthwise/depthwise_Fold", "MobilenetV2/expanded_conv/depthwise/act_quant/min", "MobilenetV2/expanded_conv/depthwise/act_quant/max"], "attr": {"narrow_range": {"b": false}, "num_bits": {"i": "8"}}}, {"name": "MobilenetV2/expanded_conv/project/add_fold", "op": "_FusedConv2D", "input": ["MobilenetV2/expanded_conv/depthwise/act_quant/FakeQuantWithMinMaxVars", "MobilenetV2/expanded_conv/project/weights_quant/FakeQuantWithMinMaxVars", "MobilenetV2/expanded_conv/project/BatchNorm_Fold/bias"], "device": "/device:CPU:0", "attr": {"num_host_args": {"i": "0"}, "data_format": {"s": "TkhXQw=="}, "filter_format": {"s": "SFdJTw=="}, "fused_ops": {"list": {"s": ["Qmlhc0FkZA=="]}}, "num_args": {"i": "1"}, "strides": {"list": {"i": ["1", "1", "1", "1"]}}, "TArgs": {"list": {"type": ["DT_FLOAT"]}}, "padding": {"s": "U0FNRQ=="}, "use_cudnn_on_gpu": {"b": true}, "leakyrelu_alpha": {"f": 0.2}, "epsilon": {"f": 0.0}, "T": {"type": "DT_FLOAT"}, "explicit_paddings": {"list": {}}, "dilations": {"list": {"i": ["1", "1", "1", "1"]}}}}, {"name": "MobilenetV2/expanded_conv/project/act_quant/FakeQuantWithMinMaxVars", "op": "FakeQuantWithMinMaxVars", "input": ["MobilenetV2/expanded_conv/project/add_fold", "MobilenetV2/expanded_conv/project/act_quant/min", "MobilenetV2/expanded_conv/project/act_quant/max"], "attr": {"narrow_range": {"b": false}, "num_bits": {"i": "8"}}}, {"name": "MobilenetV2/expanded_conv_1/expand/Relu6", "op": "_FusedConv2D", "input": ["MobilenetV2/expanded_conv/project/act_quant/FakeQuantWithMinMaxVars", "MobilenetV2/expanded_conv_1/expand/weights_quant/FakeQuantWithMinMaxVars", "MobilenetV2/expanded_conv_1/expand/BatchNorm_Fold/bias"], "device": "/device:CPU:0", "attr": {"num_host_args": {"i": "0"}, "data_format": {"s": "TkhXQw=="}, "filter_format": {"s": "SFdJTw=="}, "strides": {"list": {"i": ["1", "1", "1", "1"]}}, "num_args": {"i": "1"}, "fused_ops": {"list": {"s": ["Qmlhc0FkZA==", "UmVsdTY="]}}, "TArgs": {"list": {"type": ["DT_FLOAT"]}}, "padding": {"s": "U0FNRQ=="}, "use_cudnn_on_gpu": {"b": true}, "leakyrelu_alpha": {"f": 0.2}, "epsilon": {"f": 0.0}, "T": {"type": "DT_FLOAT"}, "explicit_paddings": {"list": {}}, "dilations": {"list": {"i": ["1", "1", "1", "1"]}}}}, {"name": "MobilenetV2/expanded_conv_1/expand/act_quant/FakeQuantWithMinMaxVars", "op": "FakeQuantWithMinMaxVars", "input": ["MobilenetV2/expanded_conv_1/expand/Relu6", "MobilenetV2/expanded_conv_1/expand/act_quant/min", "MobilenetV2/expanded_conv_1/expand/act_quant/max"], "attr": {"narrow_range": {"b": false}, "num_bits": {"i": "8"}}}, {"name": "MobilenetV2/expanded_conv_1/depthwise/depthwise_Fold", "op": "FusedDepthwiseConv2dNative", "input": ["MobilenetV2/expanded_conv_1/expand/act_quant/FakeQuantWithMinMaxVars", "MobilenetV2/expanded_conv_1/depthwise/weights_quant/FakeQuantWithMinMaxVars", "MobilenetV2/expanded_conv_1/depthwise/BatchNorm_Fold/bias"], "attr": {"padding": {"s": "U0FNRQ=="}, "data_format": {"s": "TkhXQw=="}, "strides": {"list": {"i": ["1", "2", "2", "1"]}}, "num_args": {"i": "1"}, "fused_ops": {"list": {"s": ["Qmlhc0FkZA==", "UmVsdTY="]}}, "T": {"type": "DT_FLOAT"}, "explicit_paddings": {"list": {}}, "dilations": {"list": {"i": ["1", "1", "1", "1"]}}}}, {"name": "MobilenetV2/expanded_conv_1/depthwise/act_quant/FakeQuantWithMinMaxVars", "op": "FakeQuantWithMinMaxVars", "input": ["MobilenetV2/expanded_conv_1/depthwise/depthwise_Fold", "MobilenetV2/expanded_conv_1/depthwise/act_quant/min", "MobilenetV2/expanded_conv_1/depthwise/act_quant/max"], "attr": {"narrow_range": {"b": false}, "num_bits": {"i": "8"}}}, {"name": "MobilenetV2/expanded_conv_1/project/add_fold", "op": "_FusedConv2D", "input": ["MobilenetV2/expanded_conv_1/depthwise/act_quant/FakeQuantWithMinMaxVars", "MobilenetV2/expanded_conv_1/project/weights_quant/FakeQuantWithMinMaxVars", "MobilenetV2/expanded_conv_1/project/BatchNorm_Fold/bias"], "device": "/device:CPU:0", "attr": {"num_host_args": {"i": "0"}, "data_format": {"s": "TkhXQw=="}, "filter_format": {"s": "SFdJTw=="}, "strides": {"list": {"i": ["1", "1", "1", "1"]}}, "num_args": {"i": "1"}, "fused_ops": {"list": {"s": ["Qmlhc0FkZA=="]}}, "TArgs": {"list": {"type": ["DT_FLOAT"]}}, "padding": {"s": "U0FNRQ=="}, "use_cudnn_on_gpu": {"b": true}, "leakyrelu_alpha": {"f": 0.2}, "epsilon": {"f": 0.0}, "T": {"type": "DT_FLOAT"}, "explicit_paddings": {"list": {}}, "dilations": {"list": {"i": ["1", "1", "1", "1"]}}}}, {"name": "MobilenetV2/expanded_conv_1/project/act_quant/FakeQuantWithMinMaxVars", "op": "FakeQuantWithMinMaxVars", "input": ["MobilenetV2/expanded_conv_1/project/add_fold", "MobilenetV2/expanded_conv_1/project/act_quant/min", "MobilenetV2/expanded_conv_1/project/act_quant/max"], "attr": {"narrow_range": {"b": false}, "num_bits": {"i": "8"}}}, {"name": "MobilenetV2/expanded_conv_2/expand/Relu6", "op": "_FusedConv2D", "input": ["MobilenetV2/expanded_conv_1/project/act_quant/FakeQuantWithMinMaxVars", "MobilenetV2/expanded_conv_2/expand/weights_quant/FakeQuantWithMinMaxVars", "MobilenetV2/expanded_conv_2/expand/BatchNorm_Fold/bias"], "device": "/device:CPU:0", "attr": {"num_host_args": {"i": "0"}, "data_format": {"s": "TkhXQw=="}, "filter_format": {"s": "SFdJTw=="}, "fused_ops": {"list": {"s": ["Qmlhc0FkZA==", "UmVsdTY="]}}, "num_args": {"i": "1"}, "strides": {"list": {"i": ["1", "1", "1", "1"]}}, "TArgs": {"list": {"type": ["DT_FLOAT"]}}, "padding": {"s": "U0FNRQ=="}, "use_cudnn_on_gpu": {"b": true}, "leakyrelu_alpha": {"f": 0.2}, "epsilon": {"f": 0.0}, "T": {"type": "DT_FLOAT"}, "explicit_paddings": {"list": {}}, "dilations": {"list": {"i": ["1", "1", "1", "1"]}}}}, {"name": "MobilenetV2/expanded_conv_2/expand/act_quant/FakeQuantWithMinMaxVars", "op": "FakeQuantWithMinMaxVars", "input": ["MobilenetV2/expanded_conv_2/expand/Relu6", "MobilenetV2/expanded_conv_2/expand/act_quant/min", "MobilenetV2/expanded_conv_2/expand/act_quant/max"], "attr": {"narrow_range": {"b": false}, "num_bits": {"i": "8"}}}, {"name": "MobilenetV2/expanded_conv_2/depthwise/depthwise_Fold", "op": "FusedDepthwiseConv2dNative", "input": ["MobilenetV2/expanded_conv_2/expand/act_quant/FakeQuantWithMinMaxVars", "MobilenetV2/expanded_conv_2/depthwise/weights_quant/FakeQuantWithMinMaxVars", "MobilenetV2/expanded_conv_2/depthwise/BatchNorm_Fold/bias"], "attr": {"padding": {"s": "U0FNRQ=="}, "data_format": {"s": "TkhXQw=="}, "strides": {"list": {"i": ["1", "1", "1", "1"]}}, "num_args": {"i": "1"}, "fused_ops": {"list": {"s": ["Qmlhc0FkZA==", "UmVsdTY="]}}, "T": {"type": "DT_FLOAT"}, "explicit_paddings": {"list": {}}, "dilations": {"list": {"i": ["1", "1", "1", "1"]}}}}, {"name": "MobilenetV2/expanded_conv_2/depthwise/act_quant/FakeQuantWithMinMaxVars", "op": "FakeQuantWithMinMaxVars", "input": ["MobilenetV2/expanded_conv_2/depthwise/depthwise_Fold", "MobilenetV2/expanded_conv_2/depthwise/act_quant/min", "MobilenetV2/expanded_conv_2/depthwise/act_quant/max"], "attr": {"narrow_range": {"b": false}, "num_bits": {"i": "8"}}}, {"name": "MobilenetV2/expanded_conv_2/project/add_fold", "op": "_FusedConv2D", "input": ["MobilenetV2/expanded_conv_2/depthwise/act_quant/FakeQuantWithMinMaxVars", "MobilenetV2/expanded_conv_2/project/weights_quant/FakeQuantWithMinMaxVars", "MobilenetV2/expanded_conv_2/project/BatchNorm_Fold/bias"], "device": "/device:CPU:0", "attr": {"num_host_args": {"i": "0"}, "data_format": {"s": "TkhXQw=="}, "filter_format": {"s": "SFdJTw=="}, "fused_ops": {"list": {"s": ["Qmlhc0FkZA=="]}}, "num_args": {"i": "1"}, "strides": {"list": {"i": ["1", "1", "1", "1"]}}, "TArgs": {"list": {"type": ["DT_FLOAT"]}}, "padding": {"s": "U0FNRQ=="}, "use_cudnn_on_gpu": {"b": true}, "leakyrelu_alpha": {"f": 0.2}, "epsilon": {"f": 0.0}, "T": {"type": "DT_FLOAT"}, "explicit_paddings": {"list": {}}, "dilations": {"list": {"i": ["1", "1", "1", "1"]}}}}, {"name": "MobilenetV2/expanded_conv_2/project/act_quant/FakeQuantWithMinMaxVars", "op": "FakeQuantWithMinMaxVars", "input": ["MobilenetV2/expanded_conv_2/project/add_fold", "MobilenetV2/expanded_conv_2/project/act_quant/min", "MobilenetV2/expanded_conv_2/project/act_quant/max"], "attr": {"narrow_range": {"b": false}, "num_bits": {"i": "8"}}}, {"name": "MobilenetV2/expanded_conv_2/add", "op": "Add", "input": ["MobilenetV2/expanded_conv_2/project/act_quant/FakeQuantWithMinMaxVars", "MobilenetV2/expanded_conv_1/project/act_quant/FakeQuantWithMinMaxVars"], "attr": {"T": {"type": "DT_FLOAT"}}}, {"name": "MobilenetV2/expanded_conv_2/post_activation_bypass_quant/FakeQuantWithMinMaxVars", "op": "FakeQuantWithMinMaxVars", "input": ["MobilenetV2/expanded_conv_2/add", "MobilenetV2/expanded_conv_2/post_activation_bypass_quant/min", "MobilenetV2/expanded_conv_2/post_activation_bypass_quant/max"], "attr": {"narrow_range": {"b": false}, "num_bits": {"i": "8"}}}, {"name": "MobilenetV2/expanded_conv_3/expand/Relu6", "op": "_FusedConv2D", "input": ["MobilenetV2/expanded_conv_2/post_activation_bypass_quant/FakeQuantWithMinMaxVars", "MobilenetV2/expanded_conv_3/expand/weights_quant/FakeQuantWithMinMaxVars", "MobilenetV2/expanded_conv_3/expand/BatchNorm_Fold/bias"], "device": "/device:CPU:0", "attr": {"num_host_args": {"i": "0"}, "data_format": {"s": "TkhXQw=="}, "filter_format": {"s": "SFdJTw=="}, "fused_ops": {"list": {"s": ["Qmlhc0FkZA==", "UmVsdTY="]}}, "num_args": {"i": "1"}, "strides": {"list": {"i": ["1", "1", "1", "1"]}}, "TArgs": {"list": {"type": ["DT_FLOAT"]}}, "padding": {"s": "U0FNRQ=="}, "use_cudnn_on_gpu": {"b": true}, "leakyrelu_alpha": {"f": 0.2}, "epsilon": {"f": 0.0}, "T": {"type": "DT_FLOAT"}, "explicit_paddings": {"list": {}}, "dilations": {"list": {"i": ["1", "1", "1", "1"]}}}}, {"name": "MobilenetV2/expanded_conv_3/expand/act_quant/FakeQuantWithMinMaxVars", "op": "FakeQuantWithMinMaxVars", "input": ["MobilenetV2/expanded_conv_3/expand/Relu6", "MobilenetV2/expanded_conv_3/expand/act_quant/min", "MobilenetV2/expanded_conv_3/expand/act_quant/max"], "attr": {"narrow_range": {"b": false}, "num_bits": {"i": "8"}}}, {"name": "MobilenetV2/expanded_conv_3/depthwise/depthwise_Fold", "op": "FusedDepthwiseConv2dNative", "input": ["MobilenetV2/expanded_conv_3/expand/act_quant/FakeQuantWithMinMaxVars", "MobilenetV2/expanded_conv_3/depthwise/weights_quant/FakeQuantWithMinMaxVars", "MobilenetV2/expanded_conv_3/depthwise/BatchNorm_Fold/bias"], "attr": {"padding": {"s": "U0FNRQ=="}, "data_format": {"s": "TkhXQw=="}, "strides": {"list": {"i": ["1", "2", "2", "1"]}}, "num_args": {"i": "1"}, "fused_ops": {"list": {"s": ["Qmlhc0FkZA==", "UmVsdTY="]}}, "T": {"type": "DT_FLOAT"}, "explicit_paddings": {"list": {}}, "dilations": {"list": {"i": ["1", "1", "1", "1"]}}}}, {"name": "MobilenetV2/expanded_conv_3/depthwise/act_quant/FakeQuantWithMinMaxVars", "op": "FakeQuantWithMinMaxVars", "input": ["MobilenetV2/expanded_conv_3/depthwise/depthwise_Fold", "MobilenetV2/expanded_conv_3/depthwise/act_quant/min", "MobilenetV2/expanded_conv_3/depthwise/act_quant/max"], "attr": {"narrow_range": {"b": false}, "num_bits": {"i": "8"}}}, {"name": "MobilenetV2/expanded_conv_3/project/add_fold", "op": "_FusedConv2D", "input": ["MobilenetV2/expanded_conv_3/depthwise/act_quant/FakeQuantWithMinMaxVars", "MobilenetV2/expanded_conv_3/project/weights_quant/FakeQuantWithMinMaxVars", "MobilenetV2/expanded_conv_3/project/BatchNorm_Fold/bias"], "device": "/device:CPU:0", "attr": {"num_host_args": {"i": "0"}, "data_format": {"s": "TkhXQw=="}, "filter_format": {"s": "SFdJTw=="}, "fused_ops": {"list": {"s": ["Qmlhc0FkZA=="]}}, "num_args": {"i": "1"}, "strides": {"list": {"i": ["1", "1", "1", "1"]}}, "TArgs": {"list": {"type": ["DT_FLOAT"]}}, "padding": {"s": "U0FNRQ=="}, "use_cudnn_on_gpu": {"b": true}, "leakyrelu_alpha": {"f": 0.2}, "epsilon": {"f": 0.0}, "T": {"type": "DT_FLOAT"}, "explicit_paddings": {"list": {}}, "dilations": {"list": {"i": ["1", "1", "1", "1"]}}}}, {"name": "MobilenetV2/expanded_conv_3/project/act_quant/FakeQuantWithMinMaxVars", "op": "FakeQuantWithMinMaxVars", "input": ["MobilenetV2/expanded_conv_3/project/add_fold", "MobilenetV2/expanded_conv_3/project/act_quant/min", "MobilenetV2/expanded_conv_3/project/act_quant/max"], "attr": {"narrow_range": {"b": false}, "num_bits": {"i": "8"}}}, {"name": "MobilenetV2/expanded_conv_4/expand/Relu6", "op": "_FusedConv2D", "input": ["MobilenetV2/expanded_conv_3/project/act_quant/FakeQuantWithMinMaxVars", "MobilenetV2/expanded_conv_4/expand/weights_quant/FakeQuantWithMinMaxVars", "MobilenetV2/expanded_conv_4/expand/BatchNorm_Fold/bias"], "device": "/device:CPU:0", "attr": {"num_host_args": {"i": "0"}, "data_format": {"s": "TkhXQw=="}, "filter_format": {"s": "SFdJTw=="}, "strides": {"list": {"i": ["1", "1", "1", "1"]}}, "num_args": {"i": "1"}, "fused_ops": {"list": {"s": ["Qmlhc0FkZA==", "UmVsdTY="]}}, "TArgs": {"list": {"type": ["DT_FLOAT"]}}, "padding": {"s": "U0FNRQ=="}, "use_cudnn_on_gpu": {"b": true}, "leakyrelu_alpha": {"f": 0.2}, "epsilon": {"f": 0.0}, "T": {"type": "DT_FLOAT"}, "explicit_paddings": {"list": {}}, "dilations": {"list": {"i": ["1", "1", "1", "1"]}}}}, {"name": "MobilenetV2/expanded_conv_4/expand/act_quant/FakeQuantWithMinMaxVars", "op": "FakeQuantWithMinMaxVars", "input": ["MobilenetV2/expanded_conv_4/expand/Relu6", "MobilenetV2/expanded_conv_4/expand/act_quant/min", "MobilenetV2/expanded_conv_4/expand/act_quant/max"], "attr": {"narrow_range": {"b": false}, "num_bits": {"i": "8"}}}, {"name": "MobilenetV2/expanded_conv_4/depthwise/depthwise_Fold", "op": "FusedDepthwiseConv2dNative", "input": ["MobilenetV2/expanded_conv_4/expand/act_quant/FakeQuantWithMinMaxVars", "MobilenetV2/expanded_conv_4/depthwise/weights_quant/FakeQuantWithMinMaxVars", "MobilenetV2/expanded_conv_4/depthwise/BatchNorm_Fold/bias"], "attr": {"padding": {"s": "U0FNRQ=="}, "data_format": {"s": "TkhXQw=="}, "strides": {"list": {"i": ["1", "1", "1", "1"]}}, "num_args": {"i": "1"}, "fused_ops": {"list": {"s": ["Qmlhc0FkZA==", "UmVsdTY="]}}, "T": {"type": "DT_FLOAT"}, "explicit_paddings": {"list": {}}, "dilations": {"list": {"i": ["1", "1", "1", "1"]}}}}, {"name": "MobilenetV2/expanded_conv_4/depthwise/act_quant/FakeQuantWithMinMaxVars", "op": "FakeQuantWithMinMaxVars", "input": ["MobilenetV2/expanded_conv_4/depthwise/depthwise_Fold", "MobilenetV2/expanded_conv_4/depthwise/act_quant/min", "MobilenetV2/expanded_conv_4/depthwise/act_quant/max"], "attr": {"narrow_range": {"b": false}, "num_bits": {"i": "8"}}}, {"name": "MobilenetV2/expanded_conv_4/project/add_fold", "op": "_FusedConv2D", "input": ["MobilenetV2/expanded_conv_4/depthwise/act_quant/FakeQuantWithMinMaxVars", "MobilenetV2/expanded_conv_4/project/weights_quant/FakeQuantWithMinMaxVars", "MobilenetV2/expanded_conv_4/project/BatchNorm_Fold/bias"], "device": "/device:CPU:0", "attr": {"num_host_args": {"i": "0"}, "data_format": {"s": "TkhXQw=="}, "filter_format": {"s": "SFdJTw=="}, "strides": {"list": {"i": ["1", "1", "1", "1"]}}, "num_args": {"i": "1"}, "fused_ops": {"list": {"s": ["Qmlhc0FkZA=="]}}, "TArgs": {"list": {"type": ["DT_FLOAT"]}}, "padding": {"s": "U0FNRQ=="}, "use_cudnn_on_gpu": {"b": true}, "leakyrelu_alpha": {"f": 0.2}, "epsilon": {"f": 0.0}, "T": {"type": "DT_FLOAT"}, "explicit_paddings": {"list": {}}, "dilations": {"list": {"i": ["1", "1", "1", "1"]}}}}, {"name": "MobilenetV2/expanded_conv_4/project/act_quant/FakeQuantWithMinMaxVars", "op": "FakeQuantWithMinMaxVars", "input": ["MobilenetV2/expanded_conv_4/project/add_fold", "MobilenetV2/expanded_conv_4/project/act_quant/min", "MobilenetV2/expanded_conv_4/project/act_quant/max"], "attr": {"narrow_range": {"b": false}, "num_bits": {"i": "8"}}}, {"name": "MobilenetV2/expanded_conv_4/add", "op": "Add", "input": ["MobilenetV2/expanded_conv_4/project/act_quant/FakeQuantWithMinMaxVars", "MobilenetV2/expanded_conv_3/project/act_quant/FakeQuantWithMinMaxVars"], "attr": {"T": {"type": "DT_FLOAT"}}}, {"name": "MobilenetV2/expanded_conv_4/post_activation_bypass_quant/FakeQuantWithMinMaxVars", "op": "FakeQuantWithMinMaxVars", "input": ["MobilenetV2/expanded_conv_4/add", "MobilenetV2/expanded_conv_4/post_activation_bypass_quant/min", "MobilenetV2/expanded_conv_4/post_activation_bypass_quant/max"], "attr": {"narrow_range": {"b": false}, "num_bits": {"i": "8"}}}, {"name": "MobilenetV2/expanded_conv_5/expand/Relu6", "op": "_FusedConv2D", "input": ["MobilenetV2/expanded_conv_4/post_activation_bypass_quant/FakeQuantWithMinMaxVars", "MobilenetV2/expanded_conv_5/expand/weights_quant/FakeQuantWithMinMaxVars", "MobilenetV2/expanded_conv_5/expand/BatchNorm_Fold/bias"], "device": "/device:CPU:0", "attr": {"num_host_args": {"i": "0"}, "data_format": {"s": "TkhXQw=="}, "filter_format": {"s": "SFdJTw=="}, "strides": {"list": {"i": ["1", "1", "1", "1"]}}, "num_args": {"i": "1"}, "fused_ops": {"list": {"s": ["Qmlhc0FkZA==", "UmVsdTY="]}}, "TArgs": {"list": {"type": ["DT_FLOAT"]}}, "padding": {"s": "U0FNRQ=="}, "use_cudnn_on_gpu": {"b": true}, "leakyrelu_alpha": {"f": 0.2}, "epsilon": {"f": 0.0}, "T": {"type": "DT_FLOAT"}, "explicit_paddings": {"list": {}}, "dilations": {"list": {"i": ["1", "1", "1", "1"]}}}}, {"name": "MobilenetV2/expanded_conv_5/expand/act_quant/FakeQuantWithMinMaxVars", "op": "FakeQuantWithMinMaxVars", "input": ["MobilenetV2/expanded_conv_5/expand/Relu6", "MobilenetV2/expanded_conv_5/expand/act_quant/min", "MobilenetV2/expanded_conv_5/expand/act_quant/max"], "attr": {"narrow_range": {"b": false}, "num_bits": {"i": "8"}}}, {"name": "MobilenetV2/expanded_conv_5/depthwise/depthwise_Fold", "op": "FusedDepthwiseConv2dNative", "input": ["MobilenetV2/expanded_conv_5/expand/act_quant/FakeQuantWithMinMaxVars", "MobilenetV2/expanded_conv_5/depthwise/weights_quant/FakeQuantWithMinMaxVars", "MobilenetV2/expanded_conv_5/depthwise/BatchNorm_Fold/bias"], "attr": {"padding": {"s": "U0FNRQ=="}, "data_format": {"s": "TkhXQw=="}, "strides": {"list": {"i": ["1", "1", "1", "1"]}}, "num_args": {"i": "1"}, "fused_ops": {"list": {"s": ["Qmlhc0FkZA==", "UmVsdTY="]}}, "T": {"type": "DT_FLOAT"}, "explicit_paddings": {"list": {}}, "dilations": {"list": {"i": ["1", "1", "1", "1"]}}}}, {"name": "MobilenetV2/expanded_conv_5/depthwise/act_quant/FakeQuantWithMinMaxVars", "op": "FakeQuantWithMinMaxVars", "input": ["MobilenetV2/expanded_conv_5/depthwise/depthwise_Fold", "MobilenetV2/expanded_conv_5/depthwise/act_quant/min", "MobilenetV2/expanded_conv_5/depthwise/act_quant/max"], "attr": {"narrow_range": {"b": false}, "num_bits": {"i": "8"}}}, {"name": "MobilenetV2/expanded_conv_5/project/add_fold", "op": "_FusedConv2D", "input": ["MobilenetV2/expanded_conv_5/depthwise/act_quant/FakeQuantWithMinMaxVars", "MobilenetV2/expanded_conv_5/project/weights_quant/FakeQuantWithMinMaxVars", "MobilenetV2/expanded_conv_5/project/BatchNorm_Fold/bias"], "device": "/device:CPU:0", "attr": {"num_host_args": {"i": "0"}, "data_format": {"s": "TkhXQw=="}, "filter_format": {"s": "SFdJTw=="}, "fused_ops": {"list": {"s": ["Qmlhc0FkZA=="]}}, "num_args": {"i": "1"}, "strides": {"list": {"i": ["1", "1", "1", "1"]}}, "TArgs": {"list": {"type": ["DT_FLOAT"]}}, "padding": {"s": "U0FNRQ=="}, "use_cudnn_on_gpu": {"b": true}, "leakyrelu_alpha": {"f": 0.2}, "epsilon": {"f": 0.0}, "T": {"type": "DT_FLOAT"}, "explicit_paddings": {"list": {}}, "dilations": {"list": {"i": ["1", "1", "1", "1"]}}}}, {"name": "MobilenetV2/expanded_conv_5/project/act_quant/FakeQuantWithMinMaxVars", "op": "FakeQuantWithMinMaxVars", "input": ["MobilenetV2/expanded_conv_5/project/add_fold", "MobilenetV2/expanded_conv_5/project/act_quant/min", "MobilenetV2/expanded_conv_5/project/act_quant/max"], "attr": {"narrow_range": {"b": false}, "num_bits": {"i": "8"}}}, {"name": "MobilenetV2/expanded_conv_5/add", "op": "Add", "input": ["MobilenetV2/expanded_conv_5/project/act_quant/FakeQuantWithMinMaxVars", "MobilenetV2/expanded_conv_4/post_activation_bypass_quant/FakeQuantWithMinMaxVars"], "attr": {"T": {"type": "DT_FLOAT"}}}, {"name": "MobilenetV2/expanded_conv_5/post_activation_bypass_quant/FakeQuantWithMinMaxVars", "op": "FakeQuantWithMinMaxVars", "input": ["MobilenetV2/expanded_conv_5/add", "MobilenetV2/expanded_conv_5/post_activation_bypass_quant/min", "MobilenetV2/expanded_conv_5/post_activation_bypass_quant/max"], "attr": {"narrow_range": {"b": false}, "num_bits": {"i": "8"}}}, {"name": "MobilenetV2/expanded_conv_6/expand/Relu6", "op": "_FusedConv2D", "input": ["MobilenetV2/expanded_conv_5/post_activation_bypass_quant/FakeQuantWithMinMaxVars", "MobilenetV2/expanded_conv_6/expand/weights_quant/FakeQuantWithMinMaxVars", "MobilenetV2/expanded_conv_6/expand/BatchNorm_Fold/bias"], "device": "/device:CPU:0", "attr": {"num_host_args": {"i": "0"}, "data_format": {"s": "TkhXQw=="}, "filter_format": {"s": "SFdJTw=="}, "strides": {"list": {"i": ["1", "1", "1", "1"]}}, "num_args": {"i": "1"}, "fused_ops": {"list": {"s": ["Qmlhc0FkZA==", "UmVsdTY="]}}, "TArgs": {"list": {"type": ["DT_FLOAT"]}}, "padding": {"s": "U0FNRQ=="}, "use_cudnn_on_gpu": {"b": true}, "leakyrelu_alpha": {"f": 0.2}, "epsilon": {"f": 0.0}, "T": {"type": "DT_FLOAT"}, "explicit_paddings": {"list": {}}, "dilations": {"list": {"i": ["1", "1", "1", "1"]}}}}, {"name": "MobilenetV2/expanded_conv_6/expand/act_quant/FakeQuantWithMinMaxVars", "op": "FakeQuantWithMinMaxVars", "input": ["MobilenetV2/expanded_conv_6/expand/Relu6", "MobilenetV2/expanded_conv_6/expand/act_quant/min", "MobilenetV2/expanded_conv_6/expand/act_quant/max"], "attr": {"narrow_range": {"b": false}, "num_bits": {"i": "8"}}}, {"name": "MobilenetV2/expanded_conv_6/depthwise/depthwise_Fold", "op": "FusedDepthwiseConv2dNative", "input": ["MobilenetV2/expanded_conv_6/expand/act_quant/FakeQuantWithMinMaxVars", "MobilenetV2/expanded_conv_6/depthwise/weights_quant/FakeQuantWithMinMaxVars", "MobilenetV2/expanded_conv_6/depthwise/BatchNorm_Fold/bias"], "attr": {"padding": {"s": "U0FNRQ=="}, "data_format": {"s": "TkhXQw=="}, "strides": {"list": {"i": ["1", "2", "2", "1"]}}, "num_args": {"i": "1"}, "fused_ops": {"list": {"s": ["Qmlhc0FkZA==", "UmVsdTY="]}}, "T": {"type": "DT_FLOAT"}, "explicit_paddings": {"list": {}}, "dilations": {"list": {"i": ["1", "1", "1", "1"]}}}}, {"name": "MobilenetV2/expanded_conv_6/depthwise/act_quant/FakeQuantWithMinMaxVars", "op": "FakeQuantWithMinMaxVars", "input": ["MobilenetV2/expanded_conv_6/depthwise/depthwise_Fold", "MobilenetV2/expanded_conv_6/depthwise/act_quant/min", "MobilenetV2/expanded_conv_6/depthwise/act_quant/max"], "attr": {"narrow_range": {"b": false}, "num_bits": {"i": "8"}}}, {"name": "MobilenetV2/expanded_conv_6/project/add_fold", "op": "_FusedConv2D", "input": ["MobilenetV2/expanded_conv_6/depthwise/act_quant/FakeQuantWithMinMaxVars", "MobilenetV2/expanded_conv_6/project/weights_quant/FakeQuantWithMinMaxVars", "MobilenetV2/expanded_conv_6/project/BatchNorm_Fold/bias"], "device": "/device:CPU:0", "attr": {"num_host_args": {"i": "0"}, "data_format": {"s": "TkhXQw=="}, "filter_format": {"s": "SFdJTw=="}, "fused_ops": {"list": {"s": ["Qmlhc0FkZA=="]}}, "num_args": {"i": "1"}, "strides": {"list": {"i": ["1", "1", "1", "1"]}}, "TArgs": {"list": {"type": ["DT_FLOAT"]}}, "padding": {"s": "U0FNRQ=="}, "use_cudnn_on_gpu": {"b": true}, "leakyrelu_alpha": {"f": 0.2}, "epsilon": {"f": 0.0}, "T": {"type": "DT_FLOAT"}, "explicit_paddings": {"list": {}}, "dilations": {"list": {"i": ["1", "1", "1", "1"]}}}}, {"name": "MobilenetV2/expanded_conv_6/project/act_quant/FakeQuantWithMinMaxVars", "op": "FakeQuantWithMinMaxVars", "input": ["MobilenetV2/expanded_conv_6/project/add_fold", "MobilenetV2/expanded_conv_6/project/act_quant/min", "MobilenetV2/expanded_conv_6/project/act_quant/max"], "attr": {"narrow_range": {"b": false}, "num_bits": {"i": "8"}}}, {"name": "MobilenetV2/expanded_conv_7/expand/Relu6", "op": "_FusedConv2D", "input": ["MobilenetV2/expanded_conv_6/project/act_quant/FakeQuantWithMinMaxVars", "MobilenetV2/expanded_conv_7/expand/weights_quant/FakeQuantWithMinMaxVars", "MobilenetV2/expanded_conv_7/expand/BatchNorm_Fold/bias"], "device": "/device:CPU:0", "attr": {"num_host_args": {"i": "0"}, "data_format": {"s": "TkhXQw=="}, "filter_format": {"s": "SFdJTw=="}, "strides": {"list": {"i": ["1", "1", "1", "1"]}}, "num_args": {"i": "1"}, "fused_ops": {"list": {"s": ["Qmlhc0FkZA==", "UmVsdTY="]}}, "TArgs": {"list": {"type": ["DT_FLOAT"]}}, "padding": {"s": "U0FNRQ=="}, "use_cudnn_on_gpu": {"b": true}, "leakyrelu_alpha": {"f": 0.2}, "epsilon": {"f": 0.0}, "T": {"type": "DT_FLOAT"}, "explicit_paddings": {"list": {}}, "dilations": {"list": {"i": ["1", "1", "1", "1"]}}}}, {"name": "MobilenetV2/expanded_conv_7/expand/act_quant/FakeQuantWithMinMaxVars", "op": "FakeQuantWithMinMaxVars", "input": ["MobilenetV2/expanded_conv_7/expand/Relu6", "MobilenetV2/expanded_conv_7/expand/act_quant/min", "MobilenetV2/expanded_conv_7/expand/act_quant/max"], "attr": {"narrow_range": {"b": false}, "num_bits": {"i": "8"}}}, {"name": "MobilenetV2/expanded_conv_7/depthwise/depthwise_Fold", "op": "FusedDepthwiseConv2dNative", "input": ["MobilenetV2/expanded_conv_7/expand/act_quant/FakeQuantWithMinMaxVars", "MobilenetV2/expanded_conv_7/depthwise/weights_quant/FakeQuantWithMinMaxVars", "MobilenetV2/expanded_conv_7/depthwise/BatchNorm_Fold/bias"], "attr": {"padding": {"s": "U0FNRQ=="}, "data_format": {"s": "TkhXQw=="}, "strides": {"list": {"i": ["1", "1", "1", "1"]}}, "num_args": {"i": "1"}, "fused_ops": {"list": {"s": ["Qmlhc0FkZA==", "UmVsdTY="]}}, "T": {"type": "DT_FLOAT"}, "explicit_paddings": {"list": {}}, "dilations": {"list": {"i": ["1", "1", "1", "1"]}}}}, {"name": "MobilenetV2/expanded_conv_7/depthwise/act_quant/FakeQuantWithMinMaxVars", "op": "FakeQuantWithMinMaxVars", "input": ["MobilenetV2/expanded_conv_7/depthwise/depthwise_Fold", "MobilenetV2/expanded_conv_7/depthwise/act_quant/min", "MobilenetV2/expanded_conv_7/depthwise/act_quant/max"], "attr": {"narrow_range": {"b": false}, "num_bits": {"i": "8"}}}, {"name": "MobilenetV2/expanded_conv_7/project/add_fold", "op": "_FusedConv2D", "input": ["MobilenetV2/expanded_conv_7/depthwise/act_quant/FakeQuantWithMinMaxVars", "MobilenetV2/expanded_conv_7/project/weights_quant/FakeQuantWithMinMaxVars", "MobilenetV2/expanded_conv_7/project/BatchNorm_Fold/bias"], "device": "/device:CPU:0", "attr": {"num_host_args": {"i": "0"}, "data_format": {"s": "TkhXQw=="}, "filter_format": {"s": "SFdJTw=="}, "fused_ops": {"list": {"s": ["Qmlhc0FkZA=="]}}, "num_args": {"i": "1"}, "strides": {"list": {"i": ["1", "1", "1", "1"]}}, "TArgs": {"list": {"type": ["DT_FLOAT"]}}, "padding": {"s": "U0FNRQ=="}, "use_cudnn_on_gpu": {"b": true}, "leakyrelu_alpha": {"f": 0.2}, "epsilon": {"f": 0.0}, "T": {"type": "DT_FLOAT"}, "explicit_paddings": {"list": {}}, "dilations": {"list": {"i": ["1", "1", "1", "1"]}}}}, {"name": "MobilenetV2/expanded_conv_7/project/act_quant/FakeQuantWithMinMaxVars", "op": "FakeQuantWithMinMaxVars", "input": ["MobilenetV2/expanded_conv_7/project/add_fold", "MobilenetV2/expanded_conv_7/project/act_quant/min", "MobilenetV2/expanded_conv_7/project/act_quant/max"], "attr": {"narrow_range": {"b": false}, "num_bits": {"i": "8"}}}, {"name": "MobilenetV2/expanded_conv_7/add", "op": "Add", "input": ["MobilenetV2/expanded_conv_7/project/act_quant/FakeQuantWithMinMaxVars", "MobilenetV2/expanded_conv_6/project/act_quant/FakeQuantWithMinMaxVars"], "attr": {"T": {"type": "DT_FLOAT"}}}, {"name": "MobilenetV2/expanded_conv_7/post_activation_bypass_quant/FakeQuantWithMinMaxVars", "op": "FakeQuantWithMinMaxVars", "input": ["MobilenetV2/expanded_conv_7/add", "MobilenetV2/expanded_conv_7/post_activation_bypass_quant/min", "MobilenetV2/expanded_conv_7/post_activation_bypass_quant/max"], "attr": {"narrow_range": {"b": false}, "num_bits": {"i": "8"}}}, {"name": "MobilenetV2/expanded_conv_8/expand/Relu6", "op": "_FusedConv2D", "input": ["MobilenetV2/expanded_conv_7/post_activation_bypass_quant/FakeQuantWithMinMaxVars", "MobilenetV2/expanded_conv_8/expand/weights_quant/FakeQuantWithMinMaxVars", "MobilenetV2/expanded_conv_8/expand/BatchNorm_Fold/bias"], "device": "/device:CPU:0", "attr": {"num_host_args": {"i": "0"}, "data_format": {"s": "TkhXQw=="}, "filter_format": {"s": "SFdJTw=="}, "fused_ops": {"list": {"s": ["Qmlhc0FkZA==", "UmVsdTY="]}}, "num_args": {"i": "1"}, "strides": {"list": {"i": ["1", "1", "1", "1"]}}, "TArgs": {"list": {"type": ["DT_FLOAT"]}}, "padding": {"s": "U0FNRQ=="}, "use_cudnn_on_gpu": {"b": true}, "leakyrelu_alpha": {"f": 0.2}, "epsilon": {"f": 0.0}, "T": {"type": "DT_FLOAT"}, "explicit_paddings": {"list": {}}, "dilations": {"list": {"i": ["1", "1", "1", "1"]}}}}, {"name": "MobilenetV2/expanded_conv_8/expand/act_quant/FakeQuantWithMinMaxVars", "op": "FakeQuantWithMinMaxVars", "input": ["MobilenetV2/expanded_conv_8/expand/Relu6", "MobilenetV2/expanded_conv_8/expand/act_quant/min", "MobilenetV2/expanded_conv_8/expand/act_quant/max"], "attr": {"narrow_range": {"b": false}, "num_bits": {"i": "8"}}}, {"name": "MobilenetV2/expanded_conv_8/depthwise/depthwise_Fold", "op": "FusedDepthwiseConv2dNative", "input": ["MobilenetV2/expanded_conv_8/expand/act_quant/FakeQuantWithMinMaxVars", "MobilenetV2/expanded_conv_8/depthwise/weights_quant/FakeQuantWithMinMaxVars", "MobilenetV2/expanded_conv_8/depthwise/BatchNorm_Fold/bias"], "attr": {"padding": {"s": "U0FNRQ=="}, "data_format": {"s": "TkhXQw=="}, "strides": {"list": {"i": ["1", "1", "1", "1"]}}, "num_args": {"i": "1"}, "fused_ops": {"list": {"s": ["Qmlhc0FkZA==", "UmVsdTY="]}}, "T": {"type": "DT_FLOAT"}, "explicit_paddings": {"list": {}}, "dilations": {"list": {"i": ["1", "1", "1", "1"]}}}}, {"name": "MobilenetV2/expanded_conv_8/depthwise/act_quant/FakeQuantWithMinMaxVars", "op": "FakeQuantWithMinMaxVars", "input": ["MobilenetV2/expanded_conv_8/depthwise/depthwise_Fold", "MobilenetV2/expanded_conv_8/depthwise/act_quant/min", "MobilenetV2/expanded_conv_8/depthwise/act_quant/max"], "attr": {"narrow_range": {"b": false}, "num_bits": {"i": "8"}}}, {"name": "MobilenetV2/expanded_conv_8/project/add_fold", "op": "_FusedConv2D", "input": ["MobilenetV2/expanded_conv_8/depthwise/act_quant/FakeQuantWithMinMaxVars", "MobilenetV2/expanded_conv_8/project/weights_quant/FakeQuantWithMinMaxVars", "MobilenetV2/expanded_conv_8/project/BatchNorm_Fold/bias"], "device": "/device:CPU:0", "attr": {"num_host_args": {"i": "0"}, "data_format": {"s": "TkhXQw=="}, "filter_format": {"s": "SFdJTw=="}, "strides": {"list": {"i": ["1", "1", "1", "1"]}}, "num_args": {"i": "1"}, "fused_ops": {"list": {"s": ["Qmlhc0FkZA=="]}}, "TArgs": {"list": {"type": ["DT_FLOAT"]}}, "padding": {"s": "U0FNRQ=="}, "use_cudnn_on_gpu": {"b": true}, "leakyrelu_alpha": {"f": 0.2}, "epsilon": {"f": 0.0}, "T": {"type": "DT_FLOAT"}, "explicit_paddings": {"list": {}}, "dilations": {"list": {"i": ["1", "1", "1", "1"]}}}}, {"name": "MobilenetV2/expanded_conv_8/project/act_quant/FakeQuantWithMinMaxVars", "op": "FakeQuantWithMinMaxVars", "input": ["MobilenetV2/expanded_conv_8/project/add_fold", "MobilenetV2/expanded_conv_8/project/act_quant/min", "MobilenetV2/expanded_conv_8/project/act_quant/max"], "attr": {"narrow_range": {"b": false}, "num_bits": {"i": "8"}}}, {"name": "MobilenetV2/expanded_conv_8/add", "op": "Add", "input": ["MobilenetV2/expanded_conv_8/project/act_quant/FakeQuantWithMinMaxVars", "MobilenetV2/expanded_conv_7/post_activation_bypass_quant/FakeQuantWithMinMaxVars"], "attr": {"T": {"type": "DT_FLOAT"}}}, {"name": "MobilenetV2/expanded_conv_8/post_activation_bypass_quant/FakeQuantWithMinMaxVars", "op": "FakeQuantWithMinMaxVars", "input": ["MobilenetV2/expanded_conv_8/add", "MobilenetV2/expanded_conv_8/post_activation_bypass_quant/min", "MobilenetV2/expanded_conv_8/post_activation_bypass_quant/max"], "attr": {"narrow_range": {"b": false}, "num_bits": {"i": "8"}}}, {"name": "MobilenetV2/expanded_conv_9/expand/Relu6", "op": "_FusedConv2D", "input": ["MobilenetV2/expanded_conv_8/post_activation_bypass_quant/FakeQuantWithMinMaxVars", "MobilenetV2/expanded_conv_9/expand/weights_quant/FakeQuantWithMinMaxVars", "MobilenetV2/expanded_conv_9/expand/BatchNorm_Fold/bias"], "device": "/device:CPU:0", "attr": {"num_host_args": {"i": "0"}, "data_format": {"s": "TkhXQw=="}, "filter_format": {"s": "SFdJTw=="}, "fused_ops": {"list": {"s": ["Qmlhc0FkZA==", "UmVsdTY="]}}, "num_args": {"i": "1"}, "strides": {"list": {"i": ["1", "1", "1", "1"]}}, "TArgs": {"list": {"type": ["DT_FLOAT"]}}, "padding": {"s": "U0FNRQ=="}, "use_cudnn_on_gpu": {"b": true}, "leakyrelu_alpha": {"f": 0.2}, "epsilon": {"f": 0.0}, "T": {"type": "DT_FLOAT"}, "explicit_paddings": {"list": {}}, "dilations": {"list": {"i": ["1", "1", "1", "1"]}}}}, {"name": "MobilenetV2/expanded_conv_9/expand/act_quant/FakeQuantWithMinMaxVars", "op": "FakeQuantWithMinMaxVars", "input": ["MobilenetV2/expanded_conv_9/expand/Relu6", "MobilenetV2/expanded_conv_9/expand/act_quant/min", "MobilenetV2/expanded_conv_9/expand/act_quant/max"], "attr": {"narrow_range": {"b": false}, "num_bits": {"i": "8"}}}, {"name": "MobilenetV2/expanded_conv_9/depthwise/depthwise_Fold", "op": "FusedDepthwiseConv2dNative", "input": ["MobilenetV2/expanded_conv_9/expand/act_quant/FakeQuantWithMinMaxVars", "MobilenetV2/expanded_conv_9/depthwise/weights_quant/FakeQuantWithMinMaxVars", "MobilenetV2/expanded_conv_9/depthwise/BatchNorm_Fold/bias"], "attr": {"padding": {"s": "U0FNRQ=="}, "data_format": {"s": "TkhXQw=="}, "strides": {"list": {"i": ["1", "1", "1", "1"]}}, "num_args": {"i": "1"}, "fused_ops": {"list": {"s": ["Qmlhc0FkZA==", "UmVsdTY="]}}, "T": {"type": "DT_FLOAT"}, "explicit_paddings": {"list": {}}, "dilations": {"list": {"i": ["1", "1", "1", "1"]}}}}, {"name": "MobilenetV2/expanded_conv_9/depthwise/act_quant/FakeQuantWithMinMaxVars", "op": "FakeQuantWithMinMaxVars", "input": ["MobilenetV2/expanded_conv_9/depthwise/depthwise_Fold", "MobilenetV2/expanded_conv_9/depthwise/act_quant/min", "MobilenetV2/expanded_conv_9/depthwise/act_quant/max"], "attr": {"narrow_range": {"b": false}, "num_bits": {"i": "8"}}}, {"name": "MobilenetV2/expanded_conv_9/project/add_fold", "op": "_FusedConv2D", "input": ["MobilenetV2/expanded_conv_9/depthwise/act_quant/FakeQuantWithMinMaxVars", "MobilenetV2/expanded_conv_9/project/weights_quant/FakeQuantWithMinMaxVars", "MobilenetV2/expanded_conv_9/project/BatchNorm_Fold/bias"], "device": "/device:CPU:0", "attr": {"num_host_args": {"i": "0"}, "data_format": {"s": "TkhXQw=="}, "filter_format": {"s": "SFdJTw=="}, "strides": {"list": {"i": ["1", "1", "1", "1"]}}, "num_args": {"i": "1"}, "fused_ops": {"list": {"s": ["Qmlhc0FkZA=="]}}, "TArgs": {"list": {"type": ["DT_FLOAT"]}}, "padding": {"s": "U0FNRQ=="}, "use_cudnn_on_gpu": {"b": true}, "leakyrelu_alpha": {"f": 0.2}, "epsilon": {"f": 0.0}, "T": {"type": "DT_FLOAT"}, "explicit_paddings": {"list": {}}, "dilations": {"list": {"i": ["1", "1", "1", "1"]}}}}, {"name": "MobilenetV2/expanded_conv_9/project/act_quant/FakeQuantWithMinMaxVars", "op": "FakeQuantWithMinMaxVars", "input": ["MobilenetV2/expanded_conv_9/project/add_fold", "MobilenetV2/expanded_conv_9/project/act_quant/min", "MobilenetV2/expanded_conv_9/project/act_quant/max"], "attr": {"narrow_range": {"b": false}, "num_bits": {"i": "8"}}}, {"name": "MobilenetV2/expanded_conv_9/add", "op": "Add", "input": ["MobilenetV2/expanded_conv_9/project/act_quant/FakeQuantWithMinMaxVars", "MobilenetV2/expanded_conv_8/post_activation_bypass_quant/FakeQuantWithMinMaxVars"], "attr": {"T": {"type": "DT_FLOAT"}}}, {"name": "MobilenetV2/expanded_conv_9/post_activation_bypass_quant/FakeQuantWithMinMaxVars", "op": "FakeQuantWithMinMaxVars", "input": ["MobilenetV2/expanded_conv_9/add", "MobilenetV2/expanded_conv_9/post_activation_bypass_quant/min", "MobilenetV2/expanded_conv_9/post_activation_bypass_quant/max"], "attr": {"narrow_range": {"b": false}, "num_bits": {"i": "8"}}}, {"name": "MobilenetV2/expanded_conv_10/expand/Relu6", "op": "_FusedConv2D", "input": ["MobilenetV2/expanded_conv_9/post_activation_bypass_quant/FakeQuantWithMinMaxVars", "MobilenetV2/expanded_conv_10/expand/weights_quant/FakeQuantWithMinMaxVars", "MobilenetV2/expanded_conv_10/expand/BatchNorm_Fold/bias"], "device": "/device:CPU:0", "attr": {"num_host_args": {"i": "0"}, "data_format": {"s": "TkhXQw=="}, "filter_format": {"s": "SFdJTw=="}, "strides": {"list": {"i": ["1", "1", "1", "1"]}}, "num_args": {"i": "1"}, "fused_ops": {"list": {"s": ["Qmlhc0FkZA==", "UmVsdTY="]}}, "TArgs": {"list": {"type": ["DT_FLOAT"]}}, "padding": {"s": "U0FNRQ=="}, "use_cudnn_on_gpu": {"b": true}, "leakyrelu_alpha": {"f": 0.2}, "epsilon": {"f": 0.0}, "T": {"type": "DT_FLOAT"}, "explicit_paddings": {"list": {}}, "dilations": {"list": {"i": ["1", "1", "1", "1"]}}}}, {"name": "MobilenetV2/expanded_conv_10/expand/act_quant/FakeQuantWithMinMaxVars", "op": "FakeQuantWithMinMaxVars", "input": ["MobilenetV2/expanded_conv_10/expand/Relu6", "MobilenetV2/expanded_conv_10/expand/act_quant/min", "MobilenetV2/expanded_conv_10/expand/act_quant/max"], "attr": {"narrow_range": {"b": false}, "num_bits": {"i": "8"}}}, {"name": "MobilenetV2/expanded_conv_10/depthwise/depthwise_Fold", "op": "FusedDepthwiseConv2dNative", "input": ["MobilenetV2/expanded_conv_10/expand/act_quant/FakeQuantWithMinMaxVars", "MobilenetV2/expanded_conv_10/depthwise/weights_quant/FakeQuantWithMinMaxVars", "MobilenetV2/expanded_conv_10/depthwise/BatchNorm_Fold/bias"], "attr": {"padding": {"s": "U0FNRQ=="}, "data_format": {"s": "TkhXQw=="}, "strides": {"list": {"i": ["1", "1", "1", "1"]}}, "num_args": {"i": "1"}, "fused_ops": {"list": {"s": ["Qmlhc0FkZA==", "UmVsdTY="]}}, "T": {"type": "DT_FLOAT"}, "explicit_paddings": {"list": {}}, "dilations": {"list": {"i": ["1", "1", "1", "1"]}}}}, {"name": "MobilenetV2/expanded_conv_10/depthwise/act_quant/FakeQuantWithMinMaxVars", "op": "FakeQuantWithMinMaxVars", "input": ["MobilenetV2/expanded_conv_10/depthwise/depthwise_Fold", "MobilenetV2/expanded_conv_10/depthwise/act_quant/min", "MobilenetV2/expanded_conv_10/depthwise/act_quant/max"], "attr": {"narrow_range": {"b": false}, "num_bits": {"i": "8"}}}, {"name": "MobilenetV2/expanded_conv_10/project/add_fold", "op": "_FusedConv2D", "input": ["MobilenetV2/expanded_conv_10/depthwise/act_quant/FakeQuantWithMinMaxVars", "MobilenetV2/expanded_conv_10/project/weights_quant/FakeQuantWithMinMaxVars", "MobilenetV2/expanded_conv_10/project/BatchNorm_Fold/bias"], "device": "/device:CPU:0", "attr": {"num_host_args": {"i": "0"}, "data_format": {"s": "TkhXQw=="}, "filter_format": {"s": "SFdJTw=="}, "strides": {"list": {"i": ["1", "1", "1", "1"]}}, "num_args": {"i": "1"}, "fused_ops": {"list": {"s": ["Qmlhc0FkZA=="]}}, "TArgs": {"list": {"type": ["DT_FLOAT"]}}, "padding": {"s": "U0FNRQ=="}, "use_cudnn_on_gpu": {"b": true}, "leakyrelu_alpha": {"f": 0.2}, "epsilon": {"f": 0.0}, "T": {"type": "DT_FLOAT"}, "explicit_paddings": {"list": {}}, "dilations": {"list": {"i": ["1", "1", "1", "1"]}}}}, {"name": "MobilenetV2/expanded_conv_10/project/act_quant/FakeQuantWithMinMaxVars", "op": "FakeQuantWithMinMaxVars", "input": ["MobilenetV2/expanded_conv_10/project/add_fold", "MobilenetV2/expanded_conv_10/project/act_quant/min", "MobilenetV2/expanded_conv_10/project/act_quant/max"], "attr": {"narrow_range": {"b": false}, "num_bits": {"i": "8"}}}, {"name": "MobilenetV2/expanded_conv_11/expand/Relu6", "op": "_FusedConv2D", "input": ["MobilenetV2/expanded_conv_10/project/act_quant/FakeQuantWithMinMaxVars", "MobilenetV2/expanded_conv_11/expand/weights_quant/FakeQuantWithMinMaxVars", "MobilenetV2/expanded_conv_11/expand/BatchNorm_Fold/bias"], "device": "/device:CPU:0", "attr": {"num_host_args": {"i": "0"}, "data_format": {"s": "TkhXQw=="}, "filter_format": {"s": "SFdJTw=="}, "strides": {"list": {"i": ["1", "1", "1", "1"]}}, "num_args": {"i": "1"}, "fused_ops": {"list": {"s": ["Qmlhc0FkZA==", "UmVsdTY="]}}, "TArgs": {"list": {"type": ["DT_FLOAT"]}}, "padding": {"s": "U0FNRQ=="}, "use_cudnn_on_gpu": {"b": true}, "leakyrelu_alpha": {"f": 0.2}, "epsilon": {"f": 0.0}, "T": {"type": "DT_FLOAT"}, "explicit_paddings": {"list": {}}, "dilations": {"list": {"i": ["1", "1", "1", "1"]}}}}, {"name": "MobilenetV2/expanded_conv_11/expand/act_quant/FakeQuantWithMinMaxVars", "op": "FakeQuantWithMinMaxVars", "input": ["MobilenetV2/expanded_conv_11/expand/Relu6", "MobilenetV2/expanded_conv_11/expand/act_quant/min", "MobilenetV2/expanded_conv_11/expand/act_quant/max"], "attr": {"narrow_range": {"b": false}, "num_bits": {"i": "8"}}}, {"name": "MobilenetV2/expanded_conv_11/depthwise/depthwise_Fold", "op": "FusedDepthwiseConv2dNative", "input": ["MobilenetV2/expanded_conv_11/expand/act_quant/FakeQuantWithMinMaxVars", "MobilenetV2/expanded_conv_11/depthwise/weights_quant/FakeQuantWithMinMaxVars", "MobilenetV2/expanded_conv_11/depthwise/BatchNorm_Fold/bias"], "attr": {"padding": {"s": "U0FNRQ=="}, "data_format": {"s": "TkhXQw=="}, "strides": {"list": {"i": ["1", "1", "1", "1"]}}, "num_args": {"i": "1"}, "fused_ops": {"list": {"s": ["Qmlhc0FkZA==", "UmVsdTY="]}}, "T": {"type": "DT_FLOAT"}, "explicit_paddings": {"list": {}}, "dilations": {"list": {"i": ["1", "1", "1", "1"]}}}}, {"name": "MobilenetV2/expanded_conv_11/depthwise/act_quant/FakeQuantWithMinMaxVars", "op": "FakeQuantWithMinMaxVars", "input": ["MobilenetV2/expanded_conv_11/depthwise/depthwise_Fold", "MobilenetV2/expanded_conv_11/depthwise/act_quant/min", "MobilenetV2/expanded_conv_11/depthwise/act_quant/max"], "attr": {"narrow_range": {"b": false}, "num_bits": {"i": "8"}}}, {"name": "MobilenetV2/expanded_conv_11/project/add_fold", "op": "_FusedConv2D", "input": ["MobilenetV2/expanded_conv_11/depthwise/act_quant/FakeQuantWithMinMaxVars", "MobilenetV2/expanded_conv_11/project/weights_quant/FakeQuantWithMinMaxVars", "MobilenetV2/expanded_conv_11/project/BatchNorm_Fold/bias"], "device": "/device:CPU:0", "attr": {"num_host_args": {"i": "0"}, "data_format": {"s": "TkhXQw=="}, "filter_format": {"s": "SFdJTw=="}, "strides": {"list": {"i": ["1", "1", "1", "1"]}}, "num_args": {"i": "1"}, "fused_ops": {"list": {"s": ["Qmlhc0FkZA=="]}}, "TArgs": {"list": {"type": ["DT_FLOAT"]}}, "padding": {"s": "U0FNRQ=="}, "use_cudnn_on_gpu": {"b": true}, "leakyrelu_alpha": {"f": 0.2}, "epsilon": {"f": 0.0}, "T": {"type": "DT_FLOAT"}, "explicit_paddings": {"list": {}}, "dilations": {"list": {"i": ["1", "1", "1", "1"]}}}}, {"name": "MobilenetV2/expanded_conv_11/project/act_quant/FakeQuantWithMinMaxVars", "op": "FakeQuantWithMinMaxVars", "input": ["MobilenetV2/expanded_conv_11/project/add_fold", "MobilenetV2/expanded_conv_11/project/act_quant/min", "MobilenetV2/expanded_conv_11/project/act_quant/max"], "attr": {"narrow_range": {"b": false}, "num_bits": {"i": "8"}}}, {"name": "MobilenetV2/expanded_conv_11/add", "op": "Add", "input": ["MobilenetV2/expanded_conv_11/project/act_quant/FakeQuantWithMinMaxVars", "MobilenetV2/expanded_conv_10/project/act_quant/FakeQuantWithMinMaxVars"], "attr": {"T": {"type": "DT_FLOAT"}}}, {"name": "MobilenetV2/expanded_conv_11/post_activation_bypass_quant/FakeQuantWithMinMaxVars", "op": "FakeQuantWithMinMaxVars", "input": ["MobilenetV2/expanded_conv_11/add", "MobilenetV2/expanded_conv_11/post_activation_bypass_quant/min", "MobilenetV2/expanded_conv_11/post_activation_bypass_quant/max"], "attr": {"narrow_range": {"b": false}, "num_bits": {"i": "8"}}}, {"name": "MobilenetV2/expanded_conv_12/expand/Relu6", "op": "_FusedConv2D", "input": ["MobilenetV2/expanded_conv_11/post_activation_bypass_quant/FakeQuantWithMinMaxVars", "MobilenetV2/expanded_conv_12/expand/weights_quant/FakeQuantWithMinMaxVars", "MobilenetV2/expanded_conv_12/expand/BatchNorm_Fold/bias"], "device": "/device:CPU:0", "attr": {"num_host_args": {"i": "0"}, "data_format": {"s": "TkhXQw=="}, "filter_format": {"s": "SFdJTw=="}, "fused_ops": {"list": {"s": ["Qmlhc0FkZA==", "UmVsdTY="]}}, "num_args": {"i": "1"}, "strides": {"list": {"i": ["1", "1", "1", "1"]}}, "TArgs": {"list": {"type": ["DT_FLOAT"]}}, "padding": {"s": "U0FNRQ=="}, "use_cudnn_on_gpu": {"b": true}, "leakyrelu_alpha": {"f": 0.2}, "epsilon": {"f": 0.0}, "T": {"type": "DT_FLOAT"}, "explicit_paddings": {"list": {}}, "dilations": {"list": {"i": ["1", "1", "1", "1"]}}}}, {"name": "MobilenetV2/expanded_conv_12/expand/act_quant/FakeQuantWithMinMaxVars", "op": "FakeQuantWithMinMaxVars", "input": ["MobilenetV2/expanded_conv_12/expand/Relu6", "MobilenetV2/expanded_conv_12/expand/act_quant/min", "MobilenetV2/expanded_conv_12/expand/act_quant/max"], "attr": {"narrow_range": {"b": false}, "num_bits": {"i": "8"}}}, {"name": "MobilenetV2/expanded_conv_12/depthwise/depthwise_Fold", "op": "FusedDepthwiseConv2dNative", "input": ["MobilenetV2/expanded_conv_12/expand/act_quant/FakeQuantWithMinMaxVars", "MobilenetV2/expanded_conv_12/depthwise/weights_quant/FakeQuantWithMinMaxVars", "MobilenetV2/expanded_conv_12/depthwise/BatchNorm_Fold/bias"], "attr": {"padding": {"s": "U0FNRQ=="}, "data_format": {"s": "TkhXQw=="}, "strides": {"list": {"i": ["1", "1", "1", "1"]}}, "num_args": {"i": "1"}, "fused_ops": {"list": {"s": ["Qmlhc0FkZA==", "UmVsdTY="]}}, "T": {"type": "DT_FLOAT"}, "explicit_paddings": {"list": {}}, "dilations": {"list": {"i": ["1", "1", "1", "1"]}}}}, {"name": "MobilenetV2/expanded_conv_12/depthwise/act_quant/FakeQuantWithMinMaxVars", "op": "FakeQuantWithMinMaxVars", "input": ["MobilenetV2/expanded_conv_12/depthwise/depthwise_Fold", "MobilenetV2/expanded_conv_12/depthwise/act_quant/min", "MobilenetV2/expanded_conv_12/depthwise/act_quant/max"], "attr": {"narrow_range": {"b": false}, "num_bits": {"i": "8"}}}, {"name": "MobilenetV2/expanded_conv_12/project/add_fold", "op": "_FusedConv2D", "input": ["MobilenetV2/expanded_conv_12/depthwise/act_quant/FakeQuantWithMinMaxVars", "MobilenetV2/expanded_conv_12/project/weights_quant/FakeQuantWithMinMaxVars", "MobilenetV2/expanded_conv_12/project/BatchNorm_Fold/bias"], "device": "/device:CPU:0", "attr": {"num_host_args": {"i": "0"}, "data_format": {"s": "TkhXQw=="}, "filter_format": {"s": "SFdJTw=="}, "strides": {"list": {"i": ["1", "1", "1", "1"]}}, "num_args": {"i": "1"}, "fused_ops": {"list": {"s": ["Qmlhc0FkZA=="]}}, "TArgs": {"list": {"type": ["DT_FLOAT"]}}, "padding": {"s": "U0FNRQ=="}, "use_cudnn_on_gpu": {"b": true}, "leakyrelu_alpha": {"f": 0.2}, "epsilon": {"f": 0.0}, "T": {"type": "DT_FLOAT"}, "explicit_paddings": {"list": {}}, "dilations": {"list": {"i": ["1", "1", "1", "1"]}}}}, {"name": "MobilenetV2/expanded_conv_12/project/act_quant/FakeQuantWithMinMaxVars", "op": "FakeQuantWithMinMaxVars", "input": ["MobilenetV2/expanded_conv_12/project/add_fold", "MobilenetV2/expanded_conv_12/project/act_quant/min", "MobilenetV2/expanded_conv_12/project/act_quant/max"], "attr": {"narrow_range": {"b": false}, "num_bits": {"i": "8"}}}, {"name": "MobilenetV2/expanded_conv_12/add", "op": "Add", "input": ["MobilenetV2/expanded_conv_12/project/act_quant/FakeQuantWithMinMaxVars", "MobilenetV2/expanded_conv_11/post_activation_bypass_quant/FakeQuantWithMinMaxVars"], "attr": {"T": {"type": "DT_FLOAT"}}}, {"name": "MobilenetV2/expanded_conv_12/post_activation_bypass_quant/FakeQuantWithMinMaxVars", "op": "FakeQuantWithMinMaxVars", "input": ["MobilenetV2/expanded_conv_12/add", "MobilenetV2/expanded_conv_12/post_activation_bypass_quant/min", "MobilenetV2/expanded_conv_12/post_activation_bypass_quant/max"], "attr": {"narrow_range": {"b": false}, "num_bits": {"i": "8"}}}, {"name": "MobilenetV2/expanded_conv_13/expand/Relu6", "op": "_FusedConv2D", "input": ["MobilenetV2/expanded_conv_12/post_activation_bypass_quant/FakeQuantWithMinMaxVars", "MobilenetV2/expanded_conv_13/expand/weights_quant/FakeQuantWithMinMaxVars", "MobilenetV2/expanded_conv_13/expand/BatchNorm_Fold/bias"], "device": "/device:CPU:0", "attr": {"num_host_args": {"i": "0"}, "data_format": {"s": "TkhXQw=="}, "filter_format": {"s": "SFdJTw=="}, "fused_ops": {"list": {"s": ["Qmlhc0FkZA==", "UmVsdTY="]}}, "num_args": {"i": "1"}, "strides": {"list": {"i": ["1", "1", "1", "1"]}}, "TArgs": {"list": {"type": ["DT_FLOAT"]}}, "padding": {"s": "U0FNRQ=="}, "use_cudnn_on_gpu": {"b": true}, "leakyrelu_alpha": {"f": 0.2}, "epsilon": {"f": 0.0}, "T": {"type": "DT_FLOAT"}, "explicit_paddings": {"list": {}}, "dilations": {"list": {"i": ["1", "1", "1", "1"]}}}}, {"name": "MobilenetV2/expanded_conv_13/expand/act_quant/FakeQuantWithMinMaxVars", "op": "FakeQuantWithMinMaxVars", "input": ["MobilenetV2/expanded_conv_13/expand/Relu6", "MobilenetV2/expanded_conv_13/expand/act_quant/min", "MobilenetV2/expanded_conv_13/expand/act_quant/max"], "attr": {"narrow_range": {"b": false}, "num_bits": {"i": "8"}}}, {"name": "MobilenetV2/expanded_conv_13/depthwise/depthwise_Fold", "op": "FusedDepthwiseConv2dNative", "input": ["MobilenetV2/expanded_conv_13/expand/act_quant/FakeQuantWithMinMaxVars", "MobilenetV2/expanded_conv_13/depthwise/weights_quant/FakeQuantWithMinMaxVars", "MobilenetV2/expanded_conv_13/depthwise/BatchNorm_Fold/bias"], "attr": {"padding": {"s": "U0FNRQ=="}, "data_format": {"s": "TkhXQw=="}, "strides": {"list": {"i": ["1", "2", "2", "1"]}}, "num_args": {"i": "1"}, "fused_ops": {"list": {"s": ["Qmlhc0FkZA==", "UmVsdTY="]}}, "T": {"type": "DT_FLOAT"}, "explicit_paddings": {"list": {}}, "dilations": {"list": {"i": ["1", "1", "1", "1"]}}}}, {"name": "MobilenetV2/expanded_conv_13/depthwise/act_quant/FakeQuantWithMinMaxVars", "op": "FakeQuantWithMinMaxVars", "input": ["MobilenetV2/expanded_conv_13/depthwise/depthwise_Fold", "MobilenetV2/expanded_conv_13/depthwise/act_quant/min", "MobilenetV2/expanded_conv_13/depthwise/act_quant/max"], "attr": {"narrow_range": {"b": false}, "num_bits": {"i": "8"}}}, {"name": "MobilenetV2/expanded_conv_13/project/add_fold", "op": "_FusedConv2D", "input": ["MobilenetV2/expanded_conv_13/depthwise/act_quant/FakeQuantWithMinMaxVars", "MobilenetV2/expanded_conv_13/project/weights_quant/FakeQuantWithMinMaxVars", "MobilenetV2/expanded_conv_13/project/BatchNorm_Fold/bias"], "device": "/device:CPU:0", "attr": {"num_host_args": {"i": "0"}, "data_format": {"s": "TkhXQw=="}, "filter_format": {"s": "SFdJTw=="}, "strides": {"list": {"i": ["1", "1", "1", "1"]}}, "num_args": {"i": "1"}, "fused_ops": {"list": {"s": ["Qmlhc0FkZA=="]}}, "TArgs": {"list": {"type": ["DT_FLOAT"]}}, "padding": {"s": "U0FNRQ=="}, "use_cudnn_on_gpu": {"b": true}, "leakyrelu_alpha": {"f": 0.2}, "epsilon": {"f": 0.0}, "T": {"type": "DT_FLOAT"}, "explicit_paddings": {"list": {}}, "dilations": {"list": {"i": ["1", "1", "1", "1"]}}}}, {"name": "MobilenetV2/expanded_conv_13/project/act_quant/FakeQuantWithMinMaxVars", "op": "FakeQuantWithMinMaxVars", "input": ["MobilenetV2/expanded_conv_13/project/add_fold", "MobilenetV2/expanded_conv_13/project/act_quant/min", "MobilenetV2/expanded_conv_13/project/act_quant/max"], "attr": {"narrow_range": {"b": false}, "num_bits": {"i": "8"}}}, {"name": "MobilenetV2/expanded_conv_14/expand/Relu6", "op": "_FusedConv2D", "input": ["MobilenetV2/expanded_conv_13/project/act_quant/FakeQuantWithMinMaxVars", "MobilenetV2/expanded_conv_14/expand/weights_quant/FakeQuantWithMinMaxVars", "MobilenetV2/expanded_conv_14/expand/BatchNorm_Fold/bias"], "device": "/device:CPU:0", "attr": {"num_host_args": {"i": "0"}, "data_format": {"s": "TkhXQw=="}, "filter_format": {"s": "SFdJTw=="}, "strides": {"list": {"i": ["1", "1", "1", "1"]}}, "num_args": {"i": "1"}, "fused_ops": {"list": {"s": ["Qmlhc0FkZA==", "UmVsdTY="]}}, "TArgs": {"list": {"type": ["DT_FLOAT"]}}, "padding": {"s": "U0FNRQ=="}, "use_cudnn_on_gpu": {"b": true}, "leakyrelu_alpha": {"f": 0.2}, "epsilon": {"f": 0.0}, "T": {"type": "DT_FLOAT"}, "explicit_paddings": {"list": {}}, "dilations": {"list": {"i": ["1", "1", "1", "1"]}}}}, {"name": "MobilenetV2/expanded_conv_14/expand/act_quant/FakeQuantWithMinMaxVars", "op": "FakeQuantWithMinMaxVars", "input": ["MobilenetV2/expanded_conv_14/expand/Relu6", "MobilenetV2/expanded_conv_14/expand/act_quant/min", "MobilenetV2/expanded_conv_14/expand/act_quant/max"], "attr": {"narrow_range": {"b": false}, "num_bits": {"i": "8"}}}, {"name": "MobilenetV2/expanded_conv_14/depthwise/depthwise_Fold", "op": "FusedDepthwiseConv2dNative", "input": ["MobilenetV2/expanded_conv_14/expand/act_quant/FakeQuantWithMinMaxVars", "MobilenetV2/expanded_conv_14/depthwise/weights_quant/FakeQuantWithMinMaxVars", "MobilenetV2/expanded_conv_14/depthwise/BatchNorm_Fold/bias"], "attr": {"padding": {"s": "U0FNRQ=="}, "data_format": {"s": "TkhXQw=="}, "strides": {"list": {"i": ["1", "1", "1", "1"]}}, "num_args": {"i": "1"}, "fused_ops": {"list": {"s": ["Qmlhc0FkZA==", "UmVsdTY="]}}, "T": {"type": "DT_FLOAT"}, "explicit_paddings": {"list": {}}, "dilations": {"list": {"i": ["1", "1", "1", "1"]}}}}, {"name": "MobilenetV2/expanded_conv_14/depthwise/act_quant/FakeQuantWithMinMaxVars", "op": "FakeQuantWithMinMaxVars", "input": ["MobilenetV2/expanded_conv_14/depthwise/depthwise_Fold", "MobilenetV2/expanded_conv_14/depthwise/act_quant/min", "MobilenetV2/expanded_conv_14/depthwise/act_quant/max"], "attr": {"narrow_range": {"b": false}, "num_bits": {"i": "8"}}}, {"name": "MobilenetV2/expanded_conv_14/project/add_fold", "op": "_FusedConv2D", "input": ["MobilenetV2/expanded_conv_14/depthwise/act_quant/FakeQuantWithMinMaxVars", "MobilenetV2/expanded_conv_14/project/weights_quant/FakeQuantWithMinMaxVars", "MobilenetV2/expanded_conv_14/project/BatchNorm_Fold/bias"], "device": "/device:CPU:0", "attr": {"num_host_args": {"i": "0"}, "data_format": {"s": "TkhXQw=="}, "filter_format": {"s": "SFdJTw=="}, "strides": {"list": {"i": ["1", "1", "1", "1"]}}, "num_args": {"i": "1"}, "fused_ops": {"list": {"s": ["Qmlhc0FkZA=="]}}, "TArgs": {"list": {"type": ["DT_FLOAT"]}}, "padding": {"s": "U0FNRQ=="}, "use_cudnn_on_gpu": {"b": true}, "leakyrelu_alpha": {"f": 0.2}, "epsilon": {"f": 0.0}, "T": {"type": "DT_FLOAT"}, "explicit_paddings": {"list": {}}, "dilations": {"list": {"i": ["1", "1", "1", "1"]}}}}, {"name": "MobilenetV2/expanded_conv_14/project/act_quant/FakeQuantWithMinMaxVars", "op": "FakeQuantWithMinMaxVars", "input": ["MobilenetV2/expanded_conv_14/project/add_fold", "MobilenetV2/expanded_conv_14/project/act_quant/min", "MobilenetV2/expanded_conv_14/project/act_quant/max"], "attr": {"narrow_range": {"b": false}, "num_bits": {"i": "8"}}}, {"name": "MobilenetV2/expanded_conv_14/add", "op": "Add", "input": ["MobilenetV2/expanded_conv_14/project/act_quant/FakeQuantWithMinMaxVars", "MobilenetV2/expanded_conv_13/project/act_quant/FakeQuantWithMinMaxVars"], "attr": {"T": {"type": "DT_FLOAT"}}}, {"name": "MobilenetV2/expanded_conv_14/post_activation_bypass_quant/FakeQuantWithMinMaxVars", "op": "FakeQuantWithMinMaxVars", "input": ["MobilenetV2/expanded_conv_14/add", "MobilenetV2/expanded_conv_14/post_activation_bypass_quant/min", "MobilenetV2/expanded_conv_14/post_activation_bypass_quant/max"], "attr": {"narrow_range": {"b": false}, "num_bits": {"i": "8"}}}, {"name": "MobilenetV2/expanded_conv_15/expand/Relu6", "op": "_FusedConv2D", "input": ["MobilenetV2/expanded_conv_14/post_activation_bypass_quant/FakeQuantWithMinMaxVars", "MobilenetV2/expanded_conv_15/expand/weights_quant/FakeQuantWithMinMaxVars", "MobilenetV2/expanded_conv_15/expand/BatchNorm_Fold/bias"], "device": "/device:CPU:0", "attr": {"num_host_args": {"i": "0"}, "data_format": {"s": "TkhXQw=="}, "filter_format": {"s": "SFdJTw=="}, "fused_ops": {"list": {"s": ["Qmlhc0FkZA==", "UmVsdTY="]}}, "num_args": {"i": "1"}, "strides": {"list": {"i": ["1", "1", "1", "1"]}}, "TArgs": {"list": {"type": ["DT_FLOAT"]}}, "padding": {"s": "U0FNRQ=="}, "use_cudnn_on_gpu": {"b": true}, "leakyrelu_alpha": {"f": 0.2}, "epsilon": {"f": 0.0}, "T": {"type": "DT_FLOAT"}, "explicit_paddings": {"list": {}}, "dilations": {"list": {"i": ["1", "1", "1", "1"]}}}}, {"name": "MobilenetV2/expanded_conv_15/expand/act_quant/FakeQuantWithMinMaxVars", "op": "FakeQuantWithMinMaxVars", "input": ["MobilenetV2/expanded_conv_15/expand/Relu6", "MobilenetV2/expanded_conv_15/expand/act_quant/min", "MobilenetV2/expanded_conv_15/expand/act_quant/max"], "attr": {"narrow_range": {"b": false}, "num_bits": {"i": "8"}}}, {"name": "MobilenetV2/expanded_conv_15/depthwise/depthwise_Fold", "op": "FusedDepthwiseConv2dNative", "input": ["MobilenetV2/expanded_conv_15/expand/act_quant/FakeQuantWithMinMaxVars", "MobilenetV2/expanded_conv_15/depthwise/weights_quant/FakeQuantWithMinMaxVars", "MobilenetV2/expanded_conv_15/depthwise/BatchNorm_Fold/bias"], "attr": {"padding": {"s": "U0FNRQ=="}, "data_format": {"s": "TkhXQw=="}, "strides": {"list": {"i": ["1", "1", "1", "1"]}}, "num_args": {"i": "1"}, "fused_ops": {"list": {"s": ["Qmlhc0FkZA==", "UmVsdTY="]}}, "T": {"type": "DT_FLOAT"}, "explicit_paddings": {"list": {}}, "dilations": {"list": {"i": ["1", "1", "1", "1"]}}}}, {"name": "MobilenetV2/expanded_conv_15/depthwise/act_quant/FakeQuantWithMinMaxVars", "op": "FakeQuantWithMinMaxVars", "input": ["MobilenetV2/expanded_conv_15/depthwise/depthwise_Fold", "MobilenetV2/expanded_conv_15/depthwise/act_quant/min", "MobilenetV2/expanded_conv_15/depthwise/act_quant/max"], "attr": {"narrow_range": {"b": false}, "num_bits": {"i": "8"}}}, {"name": "MobilenetV2/expanded_conv_15/project/add_fold", "op": "_FusedConv2D", "input": ["MobilenetV2/expanded_conv_15/depthwise/act_quant/FakeQuantWithMinMaxVars", "MobilenetV2/expanded_conv_15/project/weights_quant/FakeQuantWithMinMaxVars", "MobilenetV2/expanded_conv_15/project/BatchNorm_Fold/bias"], "device": "/device:CPU:0", "attr": {"num_host_args": {"i": "0"}, "data_format": {"s": "TkhXQw=="}, "filter_format": {"s": "SFdJTw=="}, "fused_ops": {"list": {"s": ["Qmlhc0FkZA=="]}}, "num_args": {"i": "1"}, "strides": {"list": {"i": ["1", "1", "1", "1"]}}, "TArgs": {"list": {"type": ["DT_FLOAT"]}}, "padding": {"s": "U0FNRQ=="}, "use_cudnn_on_gpu": {"b": true}, "leakyrelu_alpha": {"f": 0.2}, "epsilon": {"f": 0.0}, "T": {"type": "DT_FLOAT"}, "explicit_paddings": {"list": {}}, "dilations": {"list": {"i": ["1", "1", "1", "1"]}}}}, {"name": "MobilenetV2/expanded_conv_15/project/act_quant/FakeQuantWithMinMaxVars", "op": "FakeQuantWithMinMaxVars", "input": ["MobilenetV2/expanded_conv_15/project/add_fold", "MobilenetV2/expanded_conv_15/project/act_quant/min", "MobilenetV2/expanded_conv_15/project/act_quant/max"], "attr": {"narrow_range": {"b": false}, "num_bits": {"i": "8"}}}, {"name": "MobilenetV2/expanded_conv_15/add", "op": "Add", "input": ["MobilenetV2/expanded_conv_15/project/act_quant/FakeQuantWithMinMaxVars", "MobilenetV2/expanded_conv_14/post_activation_bypass_quant/FakeQuantWithMinMaxVars"], "attr": {"T": {"type": "DT_FLOAT"}}}, {"name": "MobilenetV2/expanded_conv_15/post_activation_bypass_quant/FakeQuantWithMinMaxVars", "op": "FakeQuantWithMinMaxVars", "input": ["MobilenetV2/expanded_conv_15/add", "MobilenetV2/expanded_conv_15/post_activation_bypass_quant/min", "MobilenetV2/expanded_conv_15/post_activation_bypass_quant/max"], "attr": {"narrow_range": {"b": false}, "num_bits": {"i": "8"}}}, {"name": "MobilenetV2/expanded_conv_16/expand/Relu6", "op": "_FusedConv2D", "input": ["MobilenetV2/expanded_conv_15/post_activation_bypass_quant/FakeQuantWithMinMaxVars", "MobilenetV2/expanded_conv_16/expand/weights_quant/FakeQuantWithMinMaxVars", "MobilenetV2/expanded_conv_16/expand/BatchNorm_Fold/bias"], "device": "/device:CPU:0", "attr": {"num_host_args": {"i": "0"}, "data_format": {"s": "TkhXQw=="}, "filter_format": {"s": "SFdJTw=="}, "fused_ops": {"list": {"s": ["Qmlhc0FkZA==", "UmVsdTY="]}}, "num_args": {"i": "1"}, "strides": {"list": {"i": ["1", "1", "1", "1"]}}, "TArgs": {"list": {"type": ["DT_FLOAT"]}}, "padding": {"s": "U0FNRQ=="}, "use_cudnn_on_gpu": {"b": true}, "leakyrelu_alpha": {"f": 0.2}, "epsilon": {"f": 0.0}, "T": {"type": "DT_FLOAT"}, "explicit_paddings": {"list": {}}, "dilations": {"list": {"i": ["1", "1", "1", "1"]}}}}, {"name": "MobilenetV2/expanded_conv_16/expand/act_quant/FakeQuantWithMinMaxVars", "op": "FakeQuantWithMinMaxVars", "input": ["MobilenetV2/expanded_conv_16/expand/Relu6", "MobilenetV2/expanded_conv_16/expand/act_quant/min", "MobilenetV2/expanded_conv_16/expand/act_quant/max"], "attr": {"narrow_range": {"b": false}, "num_bits": {"i": "8"}}}, {"name": "MobilenetV2/expanded_conv_16/depthwise/depthwise_Fold", "op": "FusedDepthwiseConv2dNative", "input": ["MobilenetV2/expanded_conv_16/expand/act_quant/FakeQuantWithMinMaxVars", "MobilenetV2/expanded_conv_16/depthwise/weights_quant/FakeQuantWithMinMaxVars", "MobilenetV2/expanded_conv_16/depthwise/BatchNorm_Fold/bias"], "attr": {"padding": {"s": "U0FNRQ=="}, "data_format": {"s": "TkhXQw=="}, "strides": {"list": {"i": ["1", "1", "1", "1"]}}, "num_args": {"i": "1"}, "fused_ops": {"list": {"s": ["Qmlhc0FkZA==", "UmVsdTY="]}}, "T": {"type": "DT_FLOAT"}, "explicit_paddings": {"list": {}}, "dilations": {"list": {"i": ["1", "1", "1", "1"]}}}}, {"name": "MobilenetV2/expanded_conv_16/depthwise/act_quant/FakeQuantWithMinMaxVars", "op": "FakeQuantWithMinMaxVars", "input": ["MobilenetV2/expanded_conv_16/depthwise/depthwise_Fold", "MobilenetV2/expanded_conv_16/depthwise/act_quant/min", "MobilenetV2/expanded_conv_16/depthwise/act_quant/max"], "attr": {"narrow_range": {"b": false}, "num_bits": {"i": "8"}}}, {"name": "MobilenetV2/expanded_conv_16/project/add_fold", "op": "_FusedConv2D", "input": ["MobilenetV2/expanded_conv_16/depthwise/act_quant/FakeQuantWithMinMaxVars", "MobilenetV2/expanded_conv_16/project/weights_quant/FakeQuantWithMinMaxVars", "MobilenetV2/expanded_conv_16/project/BatchNorm_Fold/bias"], "device": "/device:CPU:0", "attr": {"num_host_args": {"i": "0"}, "data_format": {"s": "TkhXQw=="}, "filter_format": {"s": "SFdJTw=="}, "fused_ops": {"list": {"s": ["Qmlhc0FkZA=="]}}, "num_args": {"i": "1"}, "strides": {"list": {"i": ["1", "1", "1", "1"]}}, "TArgs": {"list": {"type": ["DT_FLOAT"]}}, "padding": {"s": "U0FNRQ=="}, "use_cudnn_on_gpu": {"b": true}, "leakyrelu_alpha": {"f": 0.2}, "epsilon": {"f": 0.0}, "T": {"type": "DT_FLOAT"}, "explicit_paddings": {"list": {}}, "dilations": {"list": {"i": ["1", "1", "1", "1"]}}}}, {"name": "MobilenetV2/expanded_conv_16/project/act_quant/FakeQuantWithMinMaxVars", "op": "FakeQuantWithMinMaxVars", "input": ["MobilenetV2/expanded_conv_16/project/add_fold", "MobilenetV2/expanded_conv_16/project/act_quant/min", "MobilenetV2/expanded_conv_16/project/act_quant/max"], "attr": {"narrow_range": {"b": false}, "num_bits": {"i": "8"}}}, {"name": "MobilenetV2/Conv_1/Relu6", "op": "_FusedConv2D", "input": ["MobilenetV2/expanded_conv_16/project/act_quant/FakeQuantWithMinMaxVars", "MobilenetV2/Conv_1/weights_quant/FakeQuantWithMinMaxVars", "MobilenetV2/Conv_1/BatchNorm_Fold/bias"], "device": "/device:CPU:0", "attr": {"num_host_args": {"i": "0"}, "data_format": {"s": "TkhXQw=="}, "filter_format": {"s": "SFdJTw=="}, "strides": {"list": {"i": ["1", "1", "1", "1"]}}, "num_args": {"i": "1"}, "fused_ops": {"list": {"s": ["Qmlhc0FkZA==", "UmVsdTY="]}}, "TArgs": {"list": {"type": ["DT_FLOAT"]}}, "padding": {"s": "U0FNRQ=="}, "use_cudnn_on_gpu": {"b": true}, "leakyrelu_alpha": {"f": 0.2}, "epsilon": {"f": 0.0}, "T": {"type": "DT_FLOAT"}, "explicit_paddings": {"list": {}}, "dilations": {"list": {"i": ["1", "1", "1", "1"]}}}}, {"name": "MobilenetV2/Conv_1/act_quant/FakeQuantWithMinMaxVars", "op": "FakeQuantWithMinMaxVars", "input": ["MobilenetV2/Conv_1/Relu6", "MobilenetV2/Conv_1/act_quant/min", "MobilenetV2/Conv_1/act_quant/max"], "attr": {"narrow_range": {"b": false}, "num_bits": {"i": "8"}}}, {"name": "AvgPool/AvgPool", "op": "AvgPool", "input": ["MobilenetV2/Conv_1/act_quant/FakeQuantWithMinMaxVars"], "attr": {"padding": {"s": "VkFMSUQ="}, "data_format": {"s": "TkhXQw=="}, "T": {"type": "DT_FLOAT"}, "ksize": {"list": {"i": ["1", "7", "7", "1"]}}, "strides": {"list": {"i": ["1", "2", "2", "1"]}}}}, {"name": "Flatten/flatten/Shape", "op": "Shape", "input": ["AvgPool/AvgPool"], "attr": {"T": {"type": "DT_FLOAT"}, "out_type": {"type": "DT_INT32"}}, "experimentalType": {"typeId": "TFT_PRODUCT", "args": [{"typeId": "TFT_SHAPE_TENSOR", "args": [{"typeId": "TFT_INT32"}]}]}}, {"name": "Flatten/flatten/strided_slice", "op": "StridedSlice", "input": ["Flatten/flatten/Shape", "Flatten/flatten/strided_slice/stack", "Flatten/flatten/strided_slice/stack_1", "Flatten/flatten/strided_slice/stack_2"], "attr": {"shrink_axis_mask": {"i": "1"}, "new_axis_mask": {"i": "0"}, "Index": {"type": "DT_INT32"}, "begin_mask": {"i": "0"}, "T": {"type": "DT_INT32"}, "end_mask": {"i": "0"}, "ellipsis_mask": {"i": "0"}}}, {"name": "Flatten/flatten/Reshape/shape", "op": "Pack", "input": ["Flatten/flatten/strided_slice", "Flatten/flatten/Reshape/shape/1"], "attr": {"N": {"i": "2"}, "axis": {"i": "0"}, "T": {"type": "DT_INT32"}}}, {"name": "Flatten/flatten/Reshape", "op": "Reshape", "input": ["AvgPool/AvgPool", "Flatten/flatten/Reshape/shape"], "attr": {"T": {"type": "DT_FLOAT"}, "Tshape": {"type": "DT_INT32"}}}, {"name": "Logits/BiasAdd", "op": "_FusedMatMul", "input": ["Flatten/flatten/Reshape", "Logits/weights_quant/FakeQuantWithMinMaxVars", "Logits/biases"], "device": "/device:CPU:0", "attr": {"transpose_a": {"b": false}, "transpose_b": {"b": false}, "fused_ops": {"list": {"s": ["Qmlhc0FkZA=="]}}, "num_args": {"i": "1"}, "leakyrelu_alpha": {"f": 0.2}, "epsilon": {"f": 0.0}, "T": {"type": "DT_FLOAT"}}}, {"name": "Logits/act_quant/FakeQuantWithMinMaxVars", "op": "FakeQuantWithMinMaxVars", "input": ["Logits/BiasAdd", "Logits/act_quant/min", "Logits/act_quant/max"], "attr": {"narrow_range": {"b": false}, "num_bits": {"i": "8"}}}, {"name": "prediction", "op": "Softmax", "input": ["Logits/act_quant/FakeQuantWithMinMaxVars"], "attr": {"T": {"type": "DT_FLOAT"}}}], "library": {}, "versions": {"producer": 1994}}, "weightsManifest": [{"paths": ["group1-shard1of4.bin", "group1-shard2of4.bin", "group1-shard3of4.bin", "group1-shard4of4.bin"], "weights": [{"name": "MobilenetV2/expanded_conv_15/expand/weights_quant/FakeQuantWithMinMaxVars", "shape": [1, 1, 160, 960], "dtype": "float32"}, {"name": "MobilenetV2/expanded_conv_15/expand/BatchNorm_Fold/bias", "shape": [960], "dtype": "float32"}, {"name": "MobilenetV2/expanded_conv_15/expand/act_quant/min", "shape": [], "dtype": "float32"}, {"name": "MobilenetV2/expanded_conv_15/expand/act_quant/max", "shape": [], "dtype": "float32"}, {"name": "MobilenetV2/expanded_conv_15/depthwise/weights_quant/FakeQuantWithMinMaxVars", "shape": [3, 3, 960, 1], "dtype": "float32"}, {"name": "MobilenetV2/expanded_conv_15/depthwise/BatchNorm_Fold/bias", "shape": [960], "dtype": "float32"}, {"name": "MobilenetV2/expanded_conv_15/depthwise/act_quant/min", "shape": [], "dtype": "float32"}, {"name": "MobilenetV2/expanded_conv_15/depthwise/act_quant/max", "shape": [], "dtype": "float32"}, {"name": "MobilenetV2/expanded_conv_15/project/weights_quant/FakeQuantWithMinMaxVars", "shape": [1, 1, 960, 160], "dtype": "float32"}, {"name": "MobilenetV2/expanded_conv_15/project/BatchNorm_Fold/bias", "shape": [160], "dtype": "float32"}, {"name": "MobilenetV2/expanded_conv_15/project/act_quant/min", "shape": [], "dtype": "float32"}, {"name": "MobilenetV2/expanded_conv_15/project/act_quant/max", "shape": [], "dtype": "float32"}, {"name": "MobilenetV2/expanded_conv_14/expand/weights_quant/FakeQuantWithMinMaxVars", "shape": [1, 1, 160, 960], "dtype": "float32"}, {"name": "MobilenetV2/expanded_conv_14/expand/BatchNorm_Fold/bias", "shape": [960], "dtype": "float32"}, {"name": "MobilenetV2/expanded_conv_14/expand/act_quant/min", "shape": [], "dtype": "float32"}, {"name": "MobilenetV2/expanded_conv_14/expand/act_quant/max", "shape": [], "dtype": "float32"}, {"name": "MobilenetV2/expanded_conv_14/depthwise/weights_quant/FakeQuantWithMinMaxVars", "shape": [3, 3, 960, 1], "dtype": "float32"}, {"name": "MobilenetV2/expanded_conv_14/depthwise/BatchNorm_Fold/bias", "shape": [960], "dtype": "float32"}, {"name": "MobilenetV2/expanded_conv_14/depthwise/act_quant/min", "shape": [], "dtype": "float32"}, {"name": "MobilenetV2/expanded_conv_14/depthwise/act_quant/max", "shape": [], "dtype": "float32"}, {"name": "MobilenetV2/expanded_conv_14/project/weights_quant/FakeQuantWithMinMaxVars", "shape": [1, 1, 960, 160], "dtype": "float32"}, {"name": "MobilenetV2/expanded_conv_14/project/BatchNorm_Fold/bias", "shape": [160], "dtype": "float32"}, {"name": "MobilenetV2/expanded_conv_14/project/act_quant/min", "shape": [], "dtype": "float32"}, {"name": "MobilenetV2/expanded_conv_14/project/act_quant/max", "shape": [], "dtype": "float32"}, {"name": "MobilenetV2/expanded_conv_12/expand/weights_quant/FakeQuantWithMinMaxVars", "shape": [1, 1, 96, 576], "dtype": "float32"}, {"name": "MobilenetV2/expanded_conv_12/expand/BatchNorm_Fold/bias", "shape": [576], "dtype": "float32"}, {"name": "MobilenetV2/expanded_conv_12/expand/act_quant/min", "shape": [], "dtype": "float32"}, {"name": "MobilenetV2/expanded_conv_12/expand/act_quant/max", "shape": [], "dtype": "float32"}, {"name": "MobilenetV2/expanded_conv_12/depthwise/weights_quant/FakeQuantWithMinMaxVars", "shape": [3, 3, 576, 1], "dtype": "float32"}, {"name": "MobilenetV2/expanded_conv_12/depthwise/BatchNorm_Fold/bias", "shape": [576], "dtype": "float32"}, {"name": "MobilenetV2/expanded_conv_12/depthwise/act_quant/min", "shape": [], "dtype": "float32"}, {"name": "MobilenetV2/expanded_conv_12/depthwise/act_quant/max", "shape": [], "dtype": "float32"}, {"name": "MobilenetV2/expanded_conv_12/project/weights_quant/FakeQuantWithMinMaxVars", "shape": [1, 1, 576, 96], "dtype": "float32"}, {"name": "MobilenetV2/expanded_conv_12/project/BatchNorm_Fold/bias", "shape": [96], "dtype": "float32"}, {"name": "MobilenetV2/expanded_conv_12/project/act_quant/min", "shape": [], "dtype": "float32"}, {"name": "MobilenetV2/expanded_conv_12/project/act_quant/max", "shape": [], "dtype": "float32"}, {"name": "MobilenetV2/expanded_conv_11/expand/weights_quant/FakeQuantWithMinMaxVars", "shape": [1, 1, 96, 576], "dtype": "float32"}, {"name": "MobilenetV2/expanded_conv_11/expand/BatchNorm_Fold/bias", "shape": [576], "dtype": "float32"}, {"name": "MobilenetV2/expanded_conv_11/expand/act_quant/min", "shape": [], "dtype": "float32"}, {"name": "MobilenetV2/expanded_conv_11/expand/act_quant/max", "shape": [], "dtype": "float32"}, {"name": "MobilenetV2/expanded_conv_11/depthwise/weights_quant/FakeQuantWithMinMaxVars", "shape": [3, 3, 576, 1], "dtype": "float32"}, {"name": "MobilenetV2/expanded_conv_11/depthwise/BatchNorm_Fold/bias", "shape": [576], "dtype": "float32"}, {"name": "MobilenetV2/expanded_conv_11/depthwise/act_quant/min", "shape": [], "dtype": "float32"}, {"name": "MobilenetV2/expanded_conv_11/depthwise/act_quant/max", "shape": [], "dtype": "float32"}, {"name": "MobilenetV2/expanded_conv_11/project/weights_quant/FakeQuantWithMinMaxVars", "shape": [1, 1, 576, 96], "dtype": "float32"}, {"name": "MobilenetV2/expanded_conv_11/project/BatchNorm_Fold/bias", "shape": [96], "dtype": "float32"}, {"name": "MobilenetV2/expanded_conv_11/project/act_quant/min", "shape": [], "dtype": "float32"}, {"name": "MobilenetV2/expanded_conv_11/project/act_quant/max", "shape": [], "dtype": "float32"}, {"name": "MobilenetV2/expanded_conv_9/expand/weights_quant/FakeQuantWithMinMaxVars", "shape": [1, 1, 64, 384], "dtype": "float32"}, {"name": "MobilenetV2/expanded_conv_9/expand/BatchNorm_Fold/bias", "shape": [384], "dtype": "float32"}, {"name": "MobilenetV2/expanded_conv_9/expand/act_quant/min", "shape": [], "dtype": "float32"}, {"name": "MobilenetV2/expanded_conv_9/expand/act_quant/max", "shape": [], "dtype": "float32"}, {"name": "MobilenetV2/expanded_conv_9/depthwise/weights_quant/FakeQuantWithMinMaxVars", "shape": [3, 3, 384, 1], "dtype": "float32"}, {"name": "MobilenetV2/expanded_conv_9/depthwise/BatchNorm_Fold/bias", "shape": [384], "dtype": "float32"}, {"name": "MobilenetV2/expanded_conv_9/depthwise/act_quant/min", "shape": [], "dtype": "float32"}, {"name": "MobilenetV2/expanded_conv_9/depthwise/act_quant/max", "shape": [], "dtype": "float32"}, {"name": "MobilenetV2/expanded_conv_9/project/weights_quant/FakeQuantWithMinMaxVars", "shape": [1, 1, 384, 64], "dtype": "float32"}, {"name": "MobilenetV2/expanded_conv_9/project/BatchNorm_Fold/bias", "shape": [64], "dtype": "float32"}, {"name": "MobilenetV2/expanded_conv_9/project/act_quant/min", "shape": [], "dtype": "float32"}, {"name": "MobilenetV2/expanded_conv_9/project/act_quant/max", "shape": [], "dtype": "float32"}, {"name": "MobilenetV2/expanded_conv_8/expand/weights_quant/FakeQuantWithMinMaxVars", "shape": [1, 1, 64, 384], "dtype": "float32"}, {"name": "MobilenetV2/expanded_conv_8/expand/BatchNorm_Fold/bias", "shape": [384], "dtype": "float32"}, {"name": "MobilenetV2/expanded_conv_8/expand/act_quant/min", "shape": [], "dtype": "float32"}, {"name": "MobilenetV2/expanded_conv_8/expand/act_quant/max", "shape": [], "dtype": "float32"}, {"name": "MobilenetV2/expanded_conv_8/depthwise/weights_quant/FakeQuantWithMinMaxVars", "shape": [3, 3, 384, 1], "dtype": "float32"}, {"name": "MobilenetV2/expanded_conv_8/depthwise/BatchNorm_Fold/bias", "shape": [384], "dtype": "float32"}, {"name": "MobilenetV2/expanded_conv_8/depthwise/act_quant/min", "shape": [], "dtype": "float32"}, {"name": "MobilenetV2/expanded_conv_8/depthwise/act_quant/max", "shape": [], "dtype": "float32"}, {"name": "MobilenetV2/expanded_conv_8/project/weights_quant/FakeQuantWithMinMaxVars", "shape": [1, 1, 384, 64], "dtype": "float32"}, {"name": "MobilenetV2/expanded_conv_8/project/BatchNorm_Fold/bias", "shape": [64], "dtype": "float32"}, {"name": "MobilenetV2/expanded_conv_8/project/act_quant/min", "shape": [], "dtype": "float32"}, {"name": "MobilenetV2/expanded_conv_8/project/act_quant/max", "shape": [], "dtype": "float32"}, {"name": "MobilenetV2/expanded_conv_7/expand/weights_quant/FakeQuantWithMinMaxVars", "shape": [1, 1, 64, 384], "dtype": "float32"}, {"name": "MobilenetV2/expanded_conv_7/expand/BatchNorm_Fold/bias", "shape": [384], "dtype": "float32"}, {"name": "MobilenetV2/expanded_conv_7/expand/act_quant/min", "shape": [], "dtype": "float32"}, {"name": "MobilenetV2/expanded_conv_7/expand/act_quant/max", "shape": [], "dtype": "float32"}, {"name": "MobilenetV2/expanded_conv_7/depthwise/weights_quant/FakeQuantWithMinMaxVars", "shape": [3, 3, 384, 1], "dtype": "float32"}, {"name": "MobilenetV2/expanded_conv_7/depthwise/BatchNorm_Fold/bias", "shape": [384], "dtype": "float32"}, {"name": "MobilenetV2/expanded_conv_7/depthwise/act_quant/min", "shape": [], "dtype": "float32"}, {"name": "MobilenetV2/expanded_conv_7/depthwise/act_quant/max", "shape": [], "dtype": "float32"}, {"name": "MobilenetV2/expanded_conv_7/project/weights_quant/FakeQuantWithMinMaxVars", "shape": [1, 1, 384, 64], "dtype": "float32"}, {"name": "MobilenetV2/expanded_conv_7/project/BatchNorm_Fold/bias", "shape": [64], "dtype": "float32"}, {"name": "MobilenetV2/expanded_conv_7/project/act_quant/min", "shape": [], "dtype": "float32"}, {"name": "MobilenetV2/expanded_conv_7/project/act_quant/max", "shape": [], "dtype": "float32"}, {"name": "MobilenetV2/expanded_conv_5/expand/weights_quant/FakeQuantWithMinMaxVars", "shape": [1, 1, 32, 192], "dtype": "float32"}, {"name": "MobilenetV2/expanded_conv_5/expand/BatchNorm_Fold/bias", "shape": [192], "dtype": "float32"}, {"name": "MobilenetV2/expanded_conv_5/expand/act_quant/min", "shape": [], "dtype": "float32"}, {"name": "MobilenetV2/expanded_conv_5/expand/act_quant/max", "shape": [], "dtype": "float32"}, {"name": "MobilenetV2/expanded_conv_5/depthwise/weights_quant/FakeQuantWithMinMaxVars", "shape": [3, 3, 192, 1], "dtype": "float32"}, {"name": "MobilenetV2/expanded_conv_5/depthwise/BatchNorm_Fold/bias", "shape": [192], "dtype": "float32"}, {"name": "MobilenetV2/expanded_conv_5/depthwise/act_quant/min", "shape": [], "dtype": "float32"}, {"name": "MobilenetV2/expanded_conv_5/depthwise/act_quant/max", "shape": [], "dtype": "float32"}, {"name": "MobilenetV2/expanded_conv_5/project/weights_quant/FakeQuantWithMinMaxVars", "shape": [1, 1, 192, 32], "dtype": "float32"}, {"name": "MobilenetV2/expanded_conv_5/project/BatchNorm_Fold/bias", "shape": [32], "dtype": "float32"}, {"name": "MobilenetV2/expanded_conv_5/project/act_quant/min", "shape": [], "dtype": "float32"}, {"name": "MobilenetV2/expanded_conv_5/project/act_quant/max", "shape": [], "dtype": "float32"}, {"name": "MobilenetV2/expanded_conv_4/expand/weights_quant/FakeQuantWithMinMaxVars", "shape": [1, 1, 32, 192], "dtype": "float32"}, {"name": "MobilenetV2/expanded_conv_4/expand/BatchNorm_Fold/bias", "shape": [192], "dtype": "float32"}, {"name": "MobilenetV2/expanded_conv_4/expand/act_quant/min", "shape": [], "dtype": "float32"}, {"name": "MobilenetV2/expanded_conv_4/expand/act_quant/max", "shape": [], "dtype": "float32"}, {"name": "MobilenetV2/expanded_conv_4/depthwise/weights_quant/FakeQuantWithMinMaxVars", "shape": [3, 3, 192, 1], "dtype": "float32"}, {"name": "MobilenetV2/expanded_conv_4/depthwise/BatchNorm_Fold/bias", "shape": [192], "dtype": "float32"}, {"name": "MobilenetV2/expanded_conv_4/depthwise/act_quant/min", "shape": [], "dtype": "float32"}, {"name": "MobilenetV2/expanded_conv_4/depthwise/act_quant/max", "shape": [], "dtype": "float32"}, {"name": "MobilenetV2/expanded_conv_4/project/weights_quant/FakeQuantWithMinMaxVars", "shape": [1, 1, 192, 32], "dtype": "float32"}, {"name": "MobilenetV2/expanded_conv_4/project/BatchNorm_Fold/bias", "shape": [32], "dtype": "float32"}, {"name": "MobilenetV2/expanded_conv_4/project/act_quant/min", "shape": [], "dtype": "float32"}, {"name": "MobilenetV2/expanded_conv_4/project/act_quant/max", "shape": [], "dtype": "float32"}, {"name": "MobilenetV2/expanded_conv_2/expand/weights_quant/FakeQuantWithMinMaxVars", "shape": [1, 1, 24, 144], "dtype": "float32"}, {"name": "MobilenetV2/expanded_conv_2/expand/BatchNorm_Fold/bias", "shape": [144], "dtype": "float32"}, {"name": "MobilenetV2/expanded_conv_2/expand/act_quant/min", "shape": [], "dtype": "float32"}, {"name": "MobilenetV2/expanded_conv_2/expand/act_quant/max", "shape": [], "dtype": "float32"}, {"name": "MobilenetV2/expanded_conv_2/depthwise/weights_quant/FakeQuantWithMinMaxVars", "shape": [3, 3, 144, 1], "dtype": "float32"}, {"name": "MobilenetV2/expanded_conv_2/depthwise/BatchNorm_Fold/bias", "shape": [144], "dtype": "float32"}, {"name": "MobilenetV2/expanded_conv_2/depthwise/act_quant/min", "shape": [], "dtype": "float32"}, {"name": "MobilenetV2/expanded_conv_2/depthwise/act_quant/max", "shape": [], "dtype": "float32"}, {"name": "MobilenetV2/expanded_conv_2/project/weights_quant/FakeQuantWithMinMaxVars", "shape": [1, 1, 144, 24], "dtype": "float32"}, {"name": "MobilenetV2/expanded_conv_2/project/BatchNorm_Fold/bias", "shape": [24], "dtype": "float32"}, {"name": "MobilenetV2/expanded_conv_2/project/act_quant/min", "shape": [], "dtype": "float32"}, {"name": "MobilenetV2/expanded_conv_2/project/act_quant/max", "shape": [], "dtype": "float32"}, {"name": "hub_input/Mul/y", "shape": [], "dtype": "float32"}, {"name": "hub_input/Sub/y", "shape": [], "dtype": "float32"}, {"name": "MobilenetV2/Conv/weights_quant/FakeQuantWithMinMaxVars", "shape": [3, 3, 3, 32], "dtype": "float32"}, {"name": "MobilenetV2/Conv/BatchNorm_Fold/bias", "shape": [32], "dtype": "float32"}, {"name": "MobilenetV2/Conv/act_quant/min", "shape": [], "dtype": "float32"}, {"name": "MobilenetV2/Conv/act_quant/max", "shape": [], "dtype": "float32"}, {"name": "MobilenetV2/expanded_conv/depthwise/weights_quant/FakeQuantWithMinMaxVars", "shape": [3, 3, 32, 1], "dtype": "float32"}, {"name": "MobilenetV2/expanded_conv/depthwise/BatchNorm_Fold/bias", "shape": [32], "dtype": "float32"}, {"name": "MobilenetV2/expanded_conv/depthwise/act_quant/min", "shape": [], "dtype": "float32"}, {"name": "MobilenetV2/expanded_conv/depthwise/act_quant/max", "shape": [], "dtype": "float32"}, {"name": "MobilenetV2/expanded_conv/project/weights_quant/FakeQuantWithMinMaxVars", "shape": [1, 1, 32, 16], "dtype": "float32"}, {"name": "MobilenetV2/expanded_conv/project/BatchNorm_Fold/bias", "shape": [16], "dtype": "float32"}, {"name": "MobilenetV2/expanded_conv/project/act_quant/min", "shape": [], "dtype": "float32"}, {"name": "MobilenetV2/expanded_conv/project/act_quant/max", "shape": [], "dtype": "float32"}, {"name": "MobilenetV2/expanded_conv_1/expand/weights_quant/FakeQuantWithMinMaxVars", "shape": [1, 1, 16, 96], "dtype": "float32"}, {"name": "MobilenetV2/expanded_conv_15/post_activation_bypass_quant/min", "shape": [], "dtype": "float32"}, {"name": "MobilenetV2/expanded_conv_1/expand/BatchNorm_Fold/bias", "shape": [96], "dtype": "float32"}, {"name": "MobilenetV2/expanded_conv_15/post_activation_bypass_quant/max", "shape": [], "dtype": "float32"}, {"name": "MobilenetV2/expanded_conv_1/expand/act_quant/min", "shape": [], "dtype": "float32"}, {"name": "MobilenetV2/expanded_conv_1/expand/act_quant/max", "shape": [], "dtype": "float32"}, {"name": "MobilenetV2/expanded_conv_1/depthwise/weights_quant/FakeQuantWithMinMaxVars", "shape": [3, 3, 96, 1], "dtype": "float32"}, {"name": "MobilenetV2/expanded_conv_1/depthwise/BatchNorm_Fold/bias", "shape": [96], "dtype": "float32"}, {"name": "MobilenetV2/expanded_conv_1/depthwise/act_quant/min", "shape": [], "dtype": "float32"}, {"name": "MobilenetV2/expanded_conv_1/depthwise/act_quant/max", "shape": [], "dtype": "float32"}, {"name": "MobilenetV2/expanded_conv_1/project/weights_quant/FakeQuantWithMinMaxVars", "shape": [1, 1, 96, 24], "dtype": "float32"}, {"name": "MobilenetV2/expanded_conv_1/project/BatchNorm_Fold/bias", "shape": [24], "dtype": "float32"}, {"name": "MobilenetV2/expanded_conv_1/project/act_quant/min", "shape": [], "dtype": "float32"}, {"name": "MobilenetV2/expanded_conv_1/project/act_quant/max", "shape": [], "dtype": "float32"}, {"name": "MobilenetV2/expanded_conv_16/expand/weights_quant/FakeQuantWithMinMaxVars", "shape": [1, 1, 160, 960], "dtype": "float32"}, {"name": "Logits/biases", "shape": [965], "dtype": "float32"}, {"name": "MobilenetV2/expanded_conv_16/expand/BatchNorm_Fold/bias", "shape": [960], "dtype": "float32"}, {"name": "MobilenetV2/expanded_conv_2/post_activation_bypass_quant/min", "shape": [], "dtype": "float32"}, {"name": "MobilenetV2/expanded_conv_2/post_activation_bypass_quant/max", "shape": [], "dtype": "float32"}, {"name": "MobilenetV2/expanded_conv_3/expand/weights_quant/FakeQuantWithMinMaxVars", "shape": [1, 1, 24, 144], "dtype": "float32"}, {"name": "MobilenetV2/expanded_conv_3/expand/BatchNorm_Fold/bias", "shape": [144], "dtype": "float32"}, {"name": "MobilenetV2/expanded_conv_3/expand/act_quant/min", "shape": [], "dtype": "float32"}, {"name": "MobilenetV2/expanded_conv_3/expand/act_quant/max", "shape": [], "dtype": "float32"}, {"name": "MobilenetV2/expanded_conv_3/depthwise/weights_quant/FakeQuantWithMinMaxVars", "shape": [3, 3, 144, 1], "dtype": "float32"}, {"name": "MobilenetV2/expanded_conv_3/depthwise/BatchNorm_Fold/bias", "shape": [144], "dtype": "float32"}, {"name": "MobilenetV2/expanded_conv_3/depthwise/act_quant/min", "shape": [], "dtype": "float32"}, {"name": "MobilenetV2/expanded_conv_3/depthwise/act_quant/max", "shape": [], "dtype": "float32"}, {"name": "MobilenetV2/expanded_conv_3/project/weights_quant/FakeQuantWithMinMaxVars", "shape": [1, 1, 144, 32], "dtype": "float32"}, {"name": "MobilenetV2/expanded_conv_16/expand/act_quant/min", "shape": [], "dtype": "float32"}, {"name": "MobilenetV2/expanded_conv_3/project/BatchNorm_Fold/bias", "shape": [32], "dtype": "float32"}, {"name": "MobilenetV2/expanded_conv_3/project/act_quant/min", "shape": [], "dtype": "float32"}, {"name": "MobilenetV2/expanded_conv_3/project/act_quant/max", "shape": [], "dtype": "float32"}, {"name": "MobilenetV2/expanded_conv_16/expand/act_quant/max", "shape": [], "dtype": "float32"}, {"name": "MobilenetV2/expanded_conv_16/depthwise/weights_quant/FakeQuantWithMinMaxVars", "shape": [3, 3, 960, 1], "dtype": "float32"}, {"name": "MobilenetV2/expanded_conv_4/post_activation_bypass_quant/min", "shape": [], "dtype": "float32"}, {"name": "MobilenetV2/expanded_conv_4/post_activation_bypass_quant/max", "shape": [], "dtype": "float32"}, {"name": "MobilenetV2/expanded_conv_16/depthwise/BatchNorm_Fold/bias", "shape": [960], "dtype": "float32"}, {"name": "MobilenetV2/expanded_conv_5/post_activation_bypass_quant/min", "shape": [], "dtype": "float32"}, {"name": "MobilenetV2/expanded_conv_5/post_activation_bypass_quant/max", "shape": [], "dtype": "float32"}, {"name": "MobilenetV2/expanded_conv_6/expand/weights_quant/FakeQuantWithMinMaxVars", "shape": [1, 1, 32, 192], "dtype": "float32"}, {"name": "MobilenetV2/expanded_conv_6/expand/BatchNorm_Fold/bias", "shape": [192], "dtype": "float32"}, {"name": "MobilenetV2/expanded_conv_16/depthwise/act_quant/min", "shape": [], "dtype": "float32"}, {"name": "MobilenetV2/expanded_conv_6/expand/act_quant/min", "shape": [], "dtype": "float32"}, {"name": "MobilenetV2/expanded_conv_6/expand/act_quant/max", "shape": [], "dtype": "float32"}, {"name": "MobilenetV2/expanded_conv_6/depthwise/weights_quant/FakeQuantWithMinMaxVars", "shape": [3, 3, 192, 1], "dtype": "float32"}, {"name": "MobilenetV2/expanded_conv_6/depthwise/BatchNorm_Fold/bias", "shape": [192], "dtype": "float32"}, {"name": "MobilenetV2/expanded_conv_6/depthwise/act_quant/min", "shape": [], "dtype": "float32"}, {"name": "MobilenetV2/expanded_conv_6/depthwise/act_quant/max", "shape": [], "dtype": "float32"}, {"name": "MobilenetV2/expanded_conv_6/project/weights_quant/FakeQuantWithMinMaxVars", "shape": [1, 1, 192, 64], "dtype": "float32"}, {"name": "MobilenetV2/expanded_conv_16/depthwise/act_quant/max", "shape": [], "dtype": "float32"}, {"name": "MobilenetV2/expanded_conv_6/project/BatchNorm_Fold/bias", "shape": [64], "dtype": "float32"}, {"name": "MobilenetV2/expanded_conv_6/project/act_quant/min", "shape": [], "dtype": "float32"}, {"name": "MobilenetV2/expanded_conv_6/project/act_quant/max", "shape": [], "dtype": "float32"}, {"name": "MobilenetV2/expanded_conv_16/project/weights_quant/FakeQuantWithMinMaxVars", "shape": [1, 1, 960, 320], "dtype": "float32"}, {"name": "Logits/act_quant/min", "shape": [], "dtype": "float32"}, {"name": "MobilenetV2/expanded_conv_7/post_activation_bypass_quant/min", "shape": [], "dtype": "float32"}, {"name": "MobilenetV2/expanded_conv_7/post_activation_bypass_quant/max", "shape": [], "dtype": "float32"}, {"name": "MobilenetV2/expanded_conv_16/project/BatchNorm_Fold/bias", "shape": [320], "dtype": "float32"}, {"name": "MobilenetV2/expanded_conv_16/project/act_quant/min", "shape": [], "dtype": "float32"}, {"name": "MobilenetV2/expanded_conv_8/post_activation_bypass_quant/min", "shape": [], "dtype": "float32"}, {"name": "MobilenetV2/expanded_conv_8/post_activation_bypass_quant/max", "shape": [], "dtype": "float32"}, {"name": "MobilenetV2/expanded_conv_16/project/act_quant/max", "shape": [], "dtype": "float32"}, {"name": "MobilenetV2/Conv_1/weights_quant/FakeQuantWithMinMaxVars", "shape": [1, 1, 320, 1280], "dtype": "float32"}, {"name": "MobilenetV2/expanded_conv_9/post_activation_bypass_quant/min", "shape": [], "dtype": "float32"}, {"name": "MobilenetV2/expanded_conv_9/post_activation_bypass_quant/max", "shape": [], "dtype": "float32"}, {"name": "MobilenetV2/expanded_conv_10/expand/weights_quant/FakeQuantWithMinMaxVars", "shape": [1, 1, 64, 384], "dtype": "float32"}, {"name": "Logits/act_quant/max", "shape": [], "dtype": "float32"}, {"name": "MobilenetV2/expanded_conv_10/expand/BatchNorm_Fold/bias", "shape": [384], "dtype": "float32"}, {"name": "MobilenetV2/Conv_1/BatchNorm_Fold/bias", "shape": [1280], "dtype": "float32"}, {"name": "MobilenetV2/expanded_conv_10/expand/act_quant/min", "shape": [], "dtype": "float32"}, {"name": "MobilenetV2/expanded_conv_10/expand/act_quant/max", "shape": [], "dtype": "float32"}, {"name": "MobilenetV2/expanded_conv_10/depthwise/weights_quant/FakeQuantWithMinMaxVars", "shape": [3, 3, 384, 1], "dtype": "float32"}, {"name": "MobilenetV2/expanded_conv_10/depthwise/BatchNorm_Fold/bias", "shape": [384], "dtype": "float32"}, {"name": "MobilenetV2/expanded_conv_10/depthwise/act_quant/min", "shape": [], "dtype": "float32"}, {"name": "MobilenetV2/expanded_conv_10/depthwise/act_quant/max", "shape": [], "dtype": "float32"}, {"name": "MobilenetV2/expanded_conv_10/project/weights_quant/FakeQuantWithMinMaxVars", "shape": [1, 1, 384, 96], "dtype": "float32"}, {"name": "MobilenetV2/expanded_conv_10/project/BatchNorm_Fold/bias", "shape": [96], "dtype": "float32"}, {"name": "MobilenetV2/expanded_conv_10/project/act_quant/min", "shape": [], "dtype": "float32"}, {"name": "MobilenetV2/expanded_conv_10/project/act_quant/max", "shape": [], "dtype": "float32"}, {"name": "MobilenetV2/Conv_1/act_quant/min", "shape": [], "dtype": "float32"}, {"name": "MobilenetV2/Conv_1/act_quant/max", "shape": [], "dtype": "float32"}, {"name": "MobilenetV2/expanded_conv_11/post_activation_bypass_quant/min", "shape": [], "dtype": "float32"}, {"name": "MobilenetV2/expanded_conv_11/post_activation_bypass_quant/max", "shape": [], "dtype": "float32"}, {"name": "MobilenetV2/expanded_conv_12/post_activation_bypass_quant/min", "shape": [], "dtype": "float32"}, {"name": "MobilenetV2/expanded_conv_12/post_activation_bypass_quant/max", "shape": [], "dtype": "float32"}, {"name": "MobilenetV2/expanded_conv_13/expand/weights_quant/FakeQuantWithMinMaxVars", "shape": [1, 1, 96, 576], "dtype": "float32"}, {"name": "Flatten/flatten/strided_slice/stack", "shape": [1], "dtype": "int32"}, {"name": "MobilenetV2/expanded_conv_13/expand/BatchNorm_Fold/bias", "shape": [576], "dtype": "float32"}, {"name": "Flatten/flatten/strided_slice/stack_1", "shape": [1], "dtype": "int32"}, {"name": "MobilenetV2/expanded_conv_13/expand/act_quant/min", "shape": [], "dtype": "float32"}, {"name": "MobilenetV2/expanded_conv_13/expand/act_quant/max", "shape": [], "dtype": "float32"}, {"name": "MobilenetV2/expanded_conv_13/depthwise/weights_quant/FakeQuantWithMinMaxVars", "shape": [3, 3, 576, 1], "dtype": "float32"}, {"name": "MobilenetV2/expanded_conv_13/depthwise/BatchNorm_Fold/bias", "shape": [576], "dtype": "float32"}, {"name": "MobilenetV2/expanded_conv_13/depthwise/act_quant/min", "shape": [], "dtype": "float32"}, {"name": "MobilenetV2/expanded_conv_13/depthwise/act_quant/max", "shape": [], "dtype": "float32"}, {"name": "MobilenetV2/expanded_conv_13/project/weights_quant/FakeQuantWithMinMaxVars", "shape": [1, 1, 576, 160], "dtype": "float32"}, {"name": "Flatten/flatten/strided_slice/stack_2", "shape": [1], "dtype": "int32"}, {"name": "MobilenetV2/expanded_conv_13/project/BatchNorm_Fold/bias", "shape": [160], "dtype": "float32"}, {"name": "MobilenetV2/expanded_conv_13/project/act_quant/min", "shape": [], "dtype": "float32"}, {"name": "MobilenetV2/expanded_conv_13/project/act_quant/max", "shape": [], "dtype": "float32"}, {"name": "Flatten/flatten/Reshape/shape/1", "shape": [], "dtype": "int32"}, {"name": "MobilenetV2/expanded_conv_14/post_activation_bypass_quant/min", "shape": [], "dtype": "float32"}, {"name": "MobilenetV2/expanded_conv_14/post_activation_bypass_quant/max", "shape": [], "dtype": "float32"}, {"name": "Logits/weights_quant/FakeQuantWithMinMaxVars", "shape": [1280, 965], "dtype": "float32"}]}]}